<?xml version="1.0"?>
<net name="Model0" version="11">
	<layers>
		<layer id="3" name="input_ids" type="Parameter" version="opset1">
			<data shape="?,?" element_type="i64" />
			<output>
				<port id="0" precision="I64" names="input_ids">
					<dim>-1</dim>
					<dim>-1</dim>
				</port>
			</output>
		</layer>
		<layer id="2" name="attention_mask" type="Parameter" version="opset1">
			<data shape="?,?" element_type="i64" />
			<output>
				<port id="0" precision="I64" names="attention_mask">
					<dim>-1</dim>
					<dim>-1</dim>
				</port>
			</output>
		</layer>
		<layer id="1" name="position_ids" type="Parameter" version="opset1">
			<data shape="?,?" element_type="i64" />
			<output>
				<port id="0" precision="I64" names="position_ids">
					<dim>-1</dim>
					<dim>-1</dim>
				</port>
			</output>
		</layer>
		<layer id="0" name="beam_idx" type="Parameter" version="opset1">
			<data shape="?" element_type="i32" />
			<output>
				<port id="0" precision="I32" names="beam_idx">
					<dim>-1</dim>
				</port>
			</output>
		</layer>
		<layer id="4" name="Constant_153669" type="Const" version="opset1">
			<data element_type="f32" shape="" offset="0" size="4" />
			<output>
				<port id="0" precision="FP32" />
			</output>
		</layer>
		<layer id="5" name="ShapeOf_153655" type="ShapeOf" version="opset3">
			<data output_type="i64" />
			<input>
				<port id="0" precision="I64">
					<dim>-1</dim>
					<dim>-1</dim>
				</port>
			</input>
			<output>
				<port id="1" precision="I64">
					<dim>2</dim>
				</port>
			</output>
		</layer>
		<layer id="6" name="Constant_153657" type="Const" version="opset1">
			<data element_type="i64" shape="1" offset="4" size="8" />
			<output>
				<port id="0" precision="I64">
					<dim>1</dim>
				</port>
			</output>
		</layer>
		<layer id="7" name="Constant_153659" type="Const" version="opset1">
			<data element_type="i64" shape="" offset="4" size="8" />
			<output>
				<port id="0" precision="I64" />
			</output>
		</layer>
		<layer id="8" name="Gather_153660" type="Gather" version="opset8">
			<data batch_dims="0" />
			<input>
				<port id="0" precision="I64">
					<dim>2</dim>
				</port>
				<port id="1" precision="I64">
					<dim>1</dim>
				</port>
				<port id="2" precision="I64" />
			</input>
			<output>
				<port id="3" precision="I64">
					<dim>1</dim>
				</port>
			</output>
		</layer>
		<layer id="9" name="Constant_153662" type="Const" version="opset1">
			<data element_type="i64" shape="1" offset="12" size="8" />
			<output>
				<port id="0" precision="I64">
					<dim>1</dim>
				</port>
			</output>
		</layer>
		<layer id="10" name="Constant_153664" type="Const" version="opset1">
			<data element_type="i64" shape="1" offset="4" size="8" />
			<output>
				<port id="0" precision="I64">
					<dim>1</dim>
				</port>
			</output>
		</layer>
		<layer id="11" name="Constant_153666" type="Const" version="opset1">
			<data element_type="i64" shape="1" offset="20" size="8" />
			<output>
				<port id="0" precision="I64">
					<dim>1</dim>
				</port>
			</output>
		</layer>
		<layer id="12" name="Concat_153667" type="Concat" version="opset1">
			<data axis="0" />
			<input>
				<port id="0" precision="I64">
					<dim>1</dim>
				</port>
				<port id="1" precision="I64">
					<dim>1</dim>
				</port>
				<port id="2" precision="I64">
					<dim>1</dim>
				</port>
				<port id="3" precision="I64">
					<dim>1</dim>
				</port>
			</input>
			<output>
				<port id="4" precision="I64">
					<dim>4</dim>
				</port>
			</output>
		</layer>
		<layer id="13" name="Broadcast_153670" type="Broadcast" version="opset3">
			<data mode="numpy" />
			<input>
				<port id="0" precision="FP32" />
				<port id="1" precision="I64">
					<dim>4</dim>
				</port>
			</input>
			<output>
				<port id="2" precision="FP32">
					<dim>-1</dim>
					<dim>32</dim>
					<dim>0</dim>
					<dim>96</dim>
				</port>
			</output>
		</layer>
		<layer id="14" name="ReadValue_152610" type="ReadValue" version="opset6">
			<data variable_id="past_key_values.9.valuepresent.9.value" variable_type="f32" variable_shape="?,32,?,96" />
			<input>
				<port id="0" precision="FP32">
					<dim>-1</dim>
					<dim>32</dim>
					<dim>0</dim>
					<dim>96</dim>
				</port>
			</input>
			<output>
				<port id="1" precision="FP32" names="past_key_values.9.value">
					<dim>-1</dim>
					<dim>32</dim>
					<dim>-1</dim>
					<dim>96</dim>
				</port>
			</output>
		</layer>
		<layer id="15" name="Constant_151307" type="Const" version="opset1">
			<data element_type="i64" shape="" offset="4" size="8" />
			<output>
				<port id="0" precision="I64" />
			</output>
		</layer>
		<layer id="16" name="Gather_151308" type="Gather" version="opset8">
			<data batch_dims="0" />
			<input>
				<port id="0" precision="FP32">
					<dim>-1</dim>
					<dim>32</dim>
					<dim>-1</dim>
					<dim>96</dim>
				</port>
				<port id="1" precision="I32">
					<dim>-1</dim>
				</port>
				<port id="2" precision="I64" />
			</input>
			<output>
				<port id="3" precision="FP32">
					<dim>-1</dim>
					<dim>32</dim>
					<dim>-1</dim>
					<dim>96</dim>
				</port>
			</output>
		</layer>
		<layer id="17" name="Constant_138701" type="Const" version="opset1">
			<data element_type="f32" shape="1, 1, 3072" offset="28" size="12288" />
			<output>
				<port id="0" precision="FP32">
					<dim>1</dim>
					<dim>1</dim>
					<dim>3072</dim>
				</port>
			</output>
		</layer>
		<layer id="18" name="self.model.embed_tokens.weight" type="Const" version="opset1">
			<data element_type="u8" shape="32064, 3072" offset="12316" size="98500608" />
			<output>
				<port id="0" precision="U8">
					<dim>32064</dim>
					<dim>3072</dim>
				</port>
			</output>
		</layer>
		<layer id="19" name="Convert_176549" type="Convert" version="opset1">
			<data destination_type="f16" />
			<input>
				<port id="0" precision="U8">
					<dim>32064</dim>
					<dim>3072</dim>
				</port>
			</input>
			<output>
				<port id="1" precision="FP16">
					<dim>32064</dim>
					<dim>3072</dim>
				</port>
			</output>
		</layer>
		<layer id="20" name="self.model.embed_tokens.weight/zero_point" type="Const" version="opset1">
			<data element_type="u8" shape="32064, 1" offset="98512924" size="32064" />
			<output>
				<port id="0" precision="U8">
					<dim>32064</dim>
					<dim>1</dim>
				</port>
			</output>
		</layer>
		<layer id="21" name="Convert_176552" type="Convert" version="opset1">
			<data destination_type="f16" />
			<input>
				<port id="0" precision="U8">
					<dim>32064</dim>
					<dim>1</dim>
				</port>
			</input>
			<output>
				<port id="1" precision="FP16">
					<dim>32064</dim>
					<dim>1</dim>
				</port>
			</output>
		</layer>
		<layer id="22" name="self.model.embed_tokens.weight/zero_point/subtract" type="Subtract" version="opset1">
			<data auto_broadcast="numpy" />
			<input>
				<port id="0" precision="FP16">
					<dim>32064</dim>
					<dim>3072</dim>
				</port>
				<port id="1" precision="FP16">
					<dim>32064</dim>
					<dim>1</dim>
				</port>
			</input>
			<output>
				<port id="2" precision="FP16">
					<dim>32064</dim>
					<dim>3072</dim>
				</port>
			</output>
		</layer>
		<layer id="23" name="self.model.embed_tokens.weight/scale" type="Const" version="opset1">
			<data element_type="f16" shape="32064, 1" offset="98544988" size="64128" />
			<output>
				<port id="0" precision="FP16">
					<dim>32064</dim>
					<dim>1</dim>
				</port>
			</output>
		</layer>
		<layer id="24" name="self.model.embed_tokens.weight/fq_weights_0" type="Multiply" version="opset1">
			<data auto_broadcast="numpy" />
			<input>
				<port id="0" precision="FP16">
					<dim>32064</dim>
					<dim>3072</dim>
				</port>
				<port id="1" precision="FP16">
					<dim>32064</dim>
					<dim>1</dim>
				</port>
			</input>
			<output>
				<port id="2" precision="FP16">
					<dim>32064</dim>
					<dim>3072</dim>
				</port>
			</output>
		</layer>
		<layer id="25" name="__module.model.embed_tokens/ov_ext::embedding/Convert" type="Convert" version="opset1">
			<data destination_type="f32" />
			<rt_info>
				<attribute name="decompression" version="0" />
			</rt_info>
			<input>
				<port id="0" precision="FP16">
					<dim>32064</dim>
					<dim>3072</dim>
				</port>
			</input>
			<output>
				<port id="1" precision="FP32">
					<dim>32064</dim>
					<dim>3072</dim>
				</port>
			</output>
		</layer>
		<layer id="26" name="__module.model.embed_tokens/ov_ext::embedding/Convert_1" type="Convert" version="opset1">
			<data destination_type="i32" />
			<input>
				<port id="0" precision="I64">
					<dim>-1</dim>
					<dim>-1</dim>
				</port>
			</input>
			<output>
				<port id="1" precision="I32">
					<dim>-1</dim>
					<dim>-1</dim>
				</port>
			</output>
		</layer>
		<layer id="27" name="__module.model.embed_tokens/ov_ext::embedding/Constant" type="Const" version="opset1">
			<data element_type="i32" shape="" offset="0" size="4" />
			<output>
				<port id="0" precision="I32" />
			</output>
		</layer>
		<layer id="28" name="__module.model.embed_tokens/ov_ext::embedding/Gather" type="Gather" version="opset8">
			<data batch_dims="0" />
			<input>
				<port id="0" precision="FP32">
					<dim>32064</dim>
					<dim>3072</dim>
				</port>
				<port id="1" precision="I32">
					<dim>-1</dim>
					<dim>-1</dim>
				</port>
				<port id="2" precision="I32" />
			</input>
			<output>
				<port id="3" precision="FP32" names="319,375,386,hidden_states.1,hidden_states.3">
					<dim>-1</dim>
					<dim>-1</dim>
					<dim>3072</dim>
				</port>
			</output>
		</layer>
		<layer id="29" name="Constant_138625" type="Const" version="opset1">
			<data element_type="f32" shape="1, 1, 3072" offset="98609116" size="12288" />
			<output>
				<port id="0" precision="FP32">
					<dim>1</dim>
					<dim>1</dim>
					<dim>3072</dim>
				</port>
			</output>
		</layer>
		<layer id="30" name="Constant_138624" type="Const" version="opset1">
			<data element_type="f32" shape="1, 1, 1" offset="98621404" size="4" />
			<output>
				<port id="0" precision="FP32">
					<dim>1</dim>
					<dim>1</dim>
					<dim>1</dim>
				</port>
			</output>
		</layer>
		<layer id="31" name="Constant_138622" type="Const" version="opset1">
			<data element_type="f32" shape="1, 1, 1" offset="98621408" size="4" />
			<output>
				<port id="0" precision="FP32">
					<dim>1</dim>
					<dim>1</dim>
					<dim>1</dim>
				</port>
			</output>
		</layer>
		<layer id="32" name="__module.model.layers.0.input_layernorm/aten::pow/Power" type="Power" version="opset1">
			<data auto_broadcast="numpy" />
			<input>
				<port id="0" precision="FP32">
					<dim>-1</dim>
					<dim>-1</dim>
					<dim>3072</dim>
				</port>
				<port id="1" precision="FP32">
					<dim>1</dim>
					<dim>1</dim>
					<dim>1</dim>
				</port>
			</input>
			<output>
				<port id="2" precision="FP32" names="376">
					<dim>-1</dim>
					<dim>-1</dim>
					<dim>3072</dim>
				</port>
			</output>
		</layer>
		<layer id="33" name="Constant_407" type="Const" version="opset1">
			<data element_type="i64" shape="1" offset="98621412" size="8" />
			<output>
				<port id="0" precision="I64" names="377">
					<dim>1</dim>
				</port>
			</output>
		</layer>
		<layer id="34" name="__module.model.layers.0.input_layernorm/aten::mean/ReduceMean" type="ReduceMean" version="opset1">
			<data keep_dims="true" />
			<input>
				<port id="0" precision="FP32">
					<dim>-1</dim>
					<dim>-1</dim>
					<dim>3072</dim>
				</port>
				<port id="1" precision="I64">
					<dim>1</dim>
				</port>
			</input>
			<output>
				<port id="2" precision="FP32" names="378,variance.1">
					<dim>-1</dim>
					<dim>-1</dim>
					<dim>1</dim>
				</port>
			</output>
		</layer>
		<layer id="35" name="Constant_138623" type="Const" version="opset1">
			<data element_type="f32" shape="1, 1, 1" offset="98621420" size="4" />
			<output>
				<port id="0" precision="FP32">
					<dim>1</dim>
					<dim>1</dim>
					<dim>1</dim>
				</port>
			</output>
		</layer>
		<layer id="36" name="__module.model.layers.0.input_layernorm/aten::add/Add" type="Add" version="opset1">
			<data auto_broadcast="numpy" />
			<input>
				<port id="0" precision="FP32">
					<dim>-1</dim>
					<dim>-1</dim>
					<dim>1</dim>
				</port>
				<port id="1" precision="FP32">
					<dim>1</dim>
					<dim>1</dim>
					<dim>1</dim>
				</port>
			</input>
			<output>
				<port id="2" precision="FP32" names="379">
					<dim>-1</dim>
					<dim>-1</dim>
					<dim>1</dim>
				</port>
			</output>
		</layer>
		<layer id="37" name="__module.model.layers.0.input_layernorm/aten::rsqrt/Sqrt" type="Sqrt" version="opset1">
			<input>
				<port id="0" precision="FP32">
					<dim>-1</dim>
					<dim>-1</dim>
					<dim>1</dim>
				</port>
			</input>
			<output>
				<port id="1" precision="FP32">
					<dim>-1</dim>
					<dim>-1</dim>
					<dim>1</dim>
				</port>
			</output>
		</layer>
		<layer id="38" name="__module.model.layers.0.input_layernorm/aten::rsqrt/Divide" type="Divide" version="opset1">
			<data auto_broadcast="numpy" m_pythondiv="true" />
			<input>
				<port id="0" precision="FP32">
					<dim>1</dim>
					<dim>1</dim>
					<dim>1</dim>
				</port>
				<port id="1" precision="FP32">
					<dim>-1</dim>
					<dim>-1</dim>
					<dim>1</dim>
				</port>
			</input>
			<output>
				<port id="2" precision="FP32" names="380">
					<dim>-1</dim>
					<dim>-1</dim>
					<dim>1</dim>
				</port>
			</output>
		</layer>
		<layer id="39" name="__module.model.layers.0.input_layernorm/aten::mul/Multiply" type="Multiply" version="opset1">
			<data auto_broadcast="numpy" />
			<input>
				<port id="0" precision="FP32">
					<dim>-1</dim>
					<dim>-1</dim>
					<dim>3072</dim>
				</port>
				<port id="1" precision="FP32">
					<dim>-1</dim>
					<dim>-1</dim>
					<dim>1</dim>
				</port>
			</input>
			<output>
				<port id="2" precision="FP32" names="381,382,hidden_states.5,hidden_states.7">
					<dim>-1</dim>
					<dim>-1</dim>
					<dim>3072</dim>
				</port>
			</output>
		</layer>
		<layer id="40" name="__module.model.layers.0.input_layernorm/aten::mul/Multiply_1" type="Multiply" version="opset1">
			<data auto_broadcast="numpy" />
			<input>
				<port id="0" precision="FP32">
					<dim>1</dim>
					<dim>1</dim>
					<dim>3072</dim>
				</port>
				<port id="1" precision="FP32">
					<dim>-1</dim>
					<dim>-1</dim>
					<dim>3072</dim>
				</port>
			</input>
			<output>
				<port id="2" precision="FP32" names="383,385,hidden_states.9">
					<dim>-1</dim>
					<dim>-1</dim>
					<dim>3072</dim>
				</port>
			</output>
		</layer>
		<layer id="41" name="self.model.layers.0.self_attn.qkv_proj.weight" type="Const" version="opset1">
			<data element_type="i4" shape="9216, 3072" offset="98621424" size="14155776" />
			<output>
				<port id="0" precision="I4">
					<dim>9216</dim>
					<dim>3072</dim>
				</port>
			</output>
		</layer>
		<layer id="42" name="Convert_321363" type="Convert" version="opset1">
			<data destination_type="f16" />
			<input>
				<port id="0" precision="I4">
					<dim>9216</dim>
					<dim>3072</dim>
				</port>
			</input>
			<output>
				<port id="1" precision="FP16">
					<dim>9216</dim>
					<dim>3072</dim>
				</port>
			</output>
		</layer>
		<layer id="43" name="self.model.layers.0.self_attn.qkv_proj.weight/scale" type="Const" version="opset1">
			<data element_type="f16" shape="9216, 1" offset="112777200" size="18432" />
			<output>
				<port id="0" precision="FP16">
					<dim>9216</dim>
					<dim>1</dim>
				</port>
			</output>
		</layer>
		<layer id="44" name="self.model.layers.0.self_attn.qkv_proj.weight/fq_weights_1" type="Multiply" version="opset1">
			<data auto_broadcast="numpy" />
			<input>
				<port id="0" precision="FP16">
					<dim>9216</dim>
					<dim>3072</dim>
				</port>
				<port id="1" precision="FP16">
					<dim>9216</dim>
					<dim>1</dim>
				</port>
			</input>
			<output>
				<port id="2" precision="FP16">
					<dim>9216</dim>
					<dim>3072</dim>
				</port>
			</output>
		</layer>
		<layer id="45" name="__module.model.layers.0.self_attn.qkv_proj/ov_ext::linear/Convert" type="Convert" version="opset1">
			<data destination_type="f32" />
			<rt_info>
				<attribute name="decompression" version="0" />
			</rt_info>
			<input>
				<port id="0" precision="FP16">
					<dim>9216</dim>
					<dim>3072</dim>
				</port>
			</input>
			<output>
				<port id="1" precision="FP32">
					<dim>9216</dim>
					<dim>3072</dim>
				</port>
			</output>
		</layer>
		<layer id="46" name="__module.model.layers.0.self_attn.qkv_proj/ov_ext::linear/MatMul" type="MatMul" version="opset1">
			<data transpose_a="false" transpose_b="true" />
			<input>
				<port id="0" precision="FP32">
					<dim>-1</dim>
					<dim>-1</dim>
					<dim>3072</dim>
				</port>
				<port id="1" precision="FP32">
					<dim>9216</dim>
					<dim>3072</dim>
				</port>
			</input>
			<output>
				<port id="2" precision="FP32" names="392,qkv.1">
					<dim>-1</dim>
					<dim>-1</dim>
					<dim>9216</dim>
				</port>
			</output>
		</layer>
		<layer id="47" name="Constant_452" type="Const" version="opset1">
			<data element_type="i64" shape="1" offset="4" size="8" />
			<output>
				<port id="0" precision="I64">
					<dim>1</dim>
				</port>
			</output>
		</layer>
		<layer id="48" name="Constant_454" type="Const" version="opset1">
			<data element_type="i64" shape="1" offset="112795632" size="8" />
			<output>
				<port id="0" precision="I64">
					<dim>1</dim>
				</port>
			</output>
		</layer>
		<layer id="49" name="Constant_456" type="Const" version="opset1">
			<data element_type="i64" shape="1" offset="112795640" size="8" />
			<output>
				<port id="0" precision="I64">
					<dim>1</dim>
				</port>
			</output>
		</layer>
		<layer id="50" name="Constant_450" type="Const" version="opset1">
			<data element_type="i64" shape="1" offset="112795648" size="8" />
			<output>
				<port id="0" precision="I64">
					<dim>1</dim>
				</port>
			</output>
		</layer>
		<layer id="51" name="__module.model.layers.0.self_attn/aten::slice/Slice" type="Slice" version="opset8">
			<input>
				<port id="0" precision="FP32">
					<dim>-1</dim>
					<dim>-1</dim>
					<dim>9216</dim>
				</port>
				<port id="1" precision="I64">
					<dim>1</dim>
				</port>
				<port id="2" precision="I64">
					<dim>1</dim>
				</port>
				<port id="3" precision="I64">
					<dim>1</dim>
				</port>
				<port id="4" precision="I64">
					<dim>1</dim>
				</port>
			</input>
			<output>
				<port id="5" precision="FP32" names="393,query_states.1">
					<dim>-1</dim>
					<dim>-1</dim>
					<dim>3072</dim>
				</port>
			</output>
		</layer>
		<layer id="52" name="Constant_147870" type="Const" version="opset1">
			<data element_type="i64" shape="4" offset="112795656" size="32" />
			<output>
				<port id="0" precision="I64">
					<dim>4</dim>
				</port>
			</output>
		</layer>
		<layer id="53" name="__module.model.layers.0.self_attn/aten::view/Reshape" type="Reshape" version="opset1">
			<data special_zero="true" />
			<input>
				<port id="0" precision="FP32">
					<dim>-1</dim>
					<dim>-1</dim>
					<dim>3072</dim>
				</port>
				<port id="1" precision="I64">
					<dim>4</dim>
				</port>
			</input>
			<output>
				<port id="2" precision="FP32" names="397">
					<dim>-1</dim>
					<dim>-1</dim>
					<dim>32</dim>
					<dim>96</dim>
				</port>
			</output>
		</layer>
		<layer id="54" name="__module.model.layers.0.self_attn/aten::transpose/Constant" type="Const" version="opset1">
			<data element_type="i32" shape="4" offset="112795688" size="16" />
			<output>
				<port id="0" precision="I32">
					<dim>4</dim>
				</port>
			</output>
		</layer>
		<layer id="55" name="__module.model.layers.0.self_attn/aten::transpose/Transpose" type="Transpose" version="opset1">
			<input>
				<port id="0" precision="FP32">
					<dim>-1</dim>
					<dim>-1</dim>
					<dim>32</dim>
					<dim>96</dim>
				</port>
				<port id="1" precision="I32">
					<dim>4</dim>
				</port>
			</input>
			<output>
				<port id="2" precision="FP32" names="398,q.1">
					<dim>-1</dim>
					<dim>32</dim>
					<dim>-1</dim>
					<dim>96</dim>
				</port>
			</output>
		</layer>
		<layer id="56" name="Constant_769" type="Const" version="opset1">
			<data element_type="i64" shape="1" offset="4" size="8" />
			<output>
				<port id="0" precision="I64">
					<dim>1</dim>
				</port>
			</output>
		</layer>
		<layer id="57" name="__module.model.layers.0.self_attn.rotary_emb/aten::to/Convert_2" type="Const" version="opset1">
			<data element_type="f32" shape="1, 48, 1" offset="112795704" size="192" />
			<output>
				<port id="0" precision="FP32" names="417">
					<dim>1</dim>
					<dim>48</dim>
					<dim>1</dim>
				</port>
			</output>
		</layer>
		<layer id="58" name="ShapeOf_145031" type="ShapeOf" version="opset3">
			<data output_type="i64" />
			<input>
				<port id="0" precision="I64">
					<dim>-1</dim>
					<dim>-1</dim>
				</port>
			</input>
			<output>
				<port id="1" precision="I64">
					<dim>2</dim>
				</port>
			</output>
		</layer>
		<layer id="59" name="Constant_145032" type="Const" version="opset1">
			<data element_type="i64" shape="1" offset="4" size="8" />
			<output>
				<port id="0" precision="I64">
					<dim>1</dim>
				</port>
			</output>
		</layer>
		<layer id="60" name="Constant_145033" type="Const" version="opset1">
			<data element_type="i64" shape="" offset="4" size="8" />
			<output>
				<port id="0" precision="I64" />
			</output>
		</layer>
		<layer id="61" name="Gather_145034" type="Gather" version="opset8">
			<data batch_dims="0" />
			<input>
				<port id="0" precision="I64">
					<dim>2</dim>
				</port>
				<port id="1" precision="I64">
					<dim>1</dim>
				</port>
				<port id="2" precision="I64" />
			</input>
			<output>
				<port id="3" precision="I64" names="1081,1246,1411,1576,1741,1906,2071,2236,2401,2566,2731,2896,3061,321,3226,3391,353,3556,3721,3886,4051,418,4216,4381,4546,4711,4876,5041,5206,5371,5536,586,751,916">
					<dim>1</dim>
				</port>
			</output>
		</layer>
		<layer id="62" name="Constant_113231" type="Const" version="opset1">
			<data element_type="i64" shape="1" offset="112795640" size="8" />
			<output>
				<port id="0" precision="I64">
					<dim>1</dim>
				</port>
			</output>
		</layer>
		<layer id="63" name="Constant_113233" type="Const" version="opset1">
			<data element_type="i64" shape="1" offset="112795640" size="8" />
			<output>
				<port id="0" precision="I64">
					<dim>1</dim>
				</port>
			</output>
		</layer>
		<layer id="64" name="__module.model.layers.0.self_attn.rotary_emb/prim::ListConstruct" type="Concat" version="opset1">
			<data axis="0" />
			<input>
				<port id="0" precision="I64">
					<dim>1</dim>
				</port>
				<port id="1" precision="I64">
					<dim>1</dim>
				</port>
				<port id="2" precision="I64">
					<dim>1</dim>
				</port>
			</input>
			<output>
				<port id="3" precision="I64">
					<dim>3</dim>
				</port>
			</output>
		</layer>
		<layer id="65" name="__module.model.layers.0.self_attn.rotary_emb/aten::expand/Broadcast" type="Broadcast" version="opset3">
			<data mode="bidirectional" />
			<input>
				<port id="0" precision="FP32">
					<dim>1</dim>
					<dim>48</dim>
					<dim>1</dim>
				</port>
				<port id="1" precision="I64">
					<dim>3</dim>
				</port>
			</input>
			<output>
				<port id="2" precision="FP32" names="1083,1088,1248,1253,1413,1418,1578,1583,1743,1748,1908,1913,2073,2078,2238,2243,2403,2408,2568,2573,2733,2738,2898,2903,3063,3068,3228,3233,3393,3398,3558,3563,3723,3728,3888,3893,4053,4058,420,4218,4223,425,4383,4388,4548,4553,4713,4718,4878,4883,5043,5048,5208,5213,5373,5378,5538,5543,588,593,753,758,918,923,inv_freq_expanded,inv_freq_expanded.1,inv_freq_expanded.101,inv_freq_expanded.103,inv_freq_expanded.105,inv_freq_expanded.107,inv_freq_expanded.109,inv_freq_expanded.11,inv_freq_expanded.111,inv_freq_expanded.113,inv_freq_expanded.115,inv_freq_expanded.117,inv_freq_expanded.119,inv_freq_expanded.121,inv_freq_expanded.123,inv_freq_expanded.125,inv_freq_expanded.13,inv_freq_expanded.15,inv_freq_expanded.17,inv_freq_expanded.19,inv_freq_expanded.21,inv_freq_expanded.23,inv_freq_expanded.25,inv_freq_expanded.27,inv_freq_expanded.29,inv_freq_expanded.3,inv_freq_expanded.31,inv_freq_expanded.33,inv_freq_expanded.35,inv_freq_expanded.37,inv_freq_expanded.39,inv_freq_expanded.41,inv_freq_expanded.43,inv_freq_expanded.45,inv_freq_expanded.47,inv_freq_expanded.49,inv_freq_expanded.5,inv_freq_expanded.51,inv_freq_expanded.53,inv_freq_expanded.55,inv_freq_expanded.57,inv_freq_expanded.59,inv_freq_expanded.61,inv_freq_expanded.63,inv_freq_expanded.65,inv_freq_expanded.67,inv_freq_expanded.69,inv_freq_expanded.7,inv_freq_expanded.71,inv_freq_expanded.73,inv_freq_expanded.75,inv_freq_expanded.77,inv_freq_expanded.79,inv_freq_expanded.81,inv_freq_expanded.83,inv_freq_expanded.85,inv_freq_expanded.87,inv_freq_expanded.89,inv_freq_expanded.9,inv_freq_expanded.91,inv_freq_expanded.93,inv_freq_expanded.95,inv_freq_expanded.97,inv_freq_expanded.99">
					<dim>-1</dim>
					<dim>48</dim>
					<dim>1</dim>
				</port>
			</output>
		</layer>
		<layer id="66" name="Constant_147871" type="Const" version="opset1">
			<data element_type="i64" shape="2" offset="112795896" size="16" />
			<output>
				<port id="0" precision="I64">
					<dim>2</dim>
				</port>
			</output>
		</layer>
		<layer id="67" name="__module.model/aten::view/Reshape" type="Reshape" version="opset1">
			<data special_zero="true" />
			<input>
				<port id="0" precision="I64">
					<dim>-1</dim>
					<dim>-1</dim>
				</port>
				<port id="1" precision="I64">
					<dim>2</dim>
				</port>
			</input>
			<output>
				<port id="2" precision="I64" names="1084,1249,1414,1579,1744,1909,2074,2239,2404,2569,2734,2899,3064,316,317,3229,3394,3559,3724,3889,4054,421,4219,4384,4549,4714,4879,5044,5209,5374,5539,589,754,919,position_ids_1">
					<dim>-1</dim>
					<dim>-1</dim>
				</port>
			</output>
		</layer>
		<layer id="68" name="244" type="Const" version="opset1">
			<data element_type="i64" shape="" offset="112795640" size="8" />
			<output>
				<port id="0" precision="I64" names="244" />
			</output>
		</layer>
		<layer id="69" name="__module.model.layers.0.self_attn.rotary_emb/aten::unsqueeze/Unsqueeze_2" type="Unsqueeze" version="opset1">
			<input>
				<port id="0" precision="I64">
					<dim>-1</dim>
					<dim>-1</dim>
				</port>
				<port id="1" precision="I64" />
			</input>
			<output>
				<port id="2" precision="I64" names="1085,1086,1250,1251,1415,1416,1580,1581,1745,1746,1910,1911,2075,2076,2240,2241,2405,2406,2570,2571,2735,2736,2900,2901,3065,3066,3230,3231,3395,3396,3560,3561,3725,3726,3890,3891,4055,4056,422,4220,4221,423,4385,4386,4550,4551,4715,4716,4880,4881,5045,5046,5210,5211,5375,5376,5540,5541,590,591,755,756,920,921">
					<dim>-1</dim>
					<dim>1</dim>
					<dim>-1</dim>
				</port>
			</output>
		</layer>
		<layer id="70" name="__module.model.layers.0.self_attn.rotary_emb/aten::to/Convert_4" type="Convert" version="opset1">
			<data destination_type="f32" />
			<input>
				<port id="0" precision="I64">
					<dim>-1</dim>
					<dim>1</dim>
					<dim>-1</dim>
				</port>
			</input>
			<output>
				<port id="1" precision="FP32" names="1087,1089,1252,1254,1417,1419,1582,1584,1747,1749,1912,1914,2077,2079,2242,2244,2407,2409,2572,2574,2737,2739,2902,2904,3067,3069,3232,3234,3397,3399,3562,3564,3727,3729,3892,3894,4057,4059,4222,4224,424,426,4387,4389,4552,4554,4717,4719,4882,4884,5047,5049,5212,5214,5377,5379,5542,5544,592,594,757,759,922,924,position_ids_expanded,position_ids_expanded.1,position_ids_expanded.101,position_ids_expanded.103,position_ids_expanded.105,position_ids_expanded.107,position_ids_expanded.109,position_ids_expanded.11,position_ids_expanded.111,position_ids_expanded.113,position_ids_expanded.115,position_ids_expanded.117,position_ids_expanded.119,position_ids_expanded.121,position_ids_expanded.123,position_ids_expanded.125,position_ids_expanded.13,position_ids_expanded.15,position_ids_expanded.17,position_ids_expanded.19,position_ids_expanded.21,position_ids_expanded.23,position_ids_expanded.25,position_ids_expanded.27,position_ids_expanded.29,position_ids_expanded.3,position_ids_expanded.31,position_ids_expanded.33,position_ids_expanded.35,position_ids_expanded.37,position_ids_expanded.39,position_ids_expanded.41,position_ids_expanded.43,position_ids_expanded.45,position_ids_expanded.47,position_ids_expanded.49,position_ids_expanded.5,position_ids_expanded.51,position_ids_expanded.53,position_ids_expanded.55,position_ids_expanded.57,position_ids_expanded.59,position_ids_expanded.61,position_ids_expanded.63,position_ids_expanded.65,position_ids_expanded.67,position_ids_expanded.69,position_ids_expanded.7,position_ids_expanded.71,position_ids_expanded.73,position_ids_expanded.75,position_ids_expanded.77,position_ids_expanded.79,position_ids_expanded.81,position_ids_expanded.83,position_ids_expanded.85,position_ids_expanded.87,position_ids_expanded.89,position_ids_expanded.9,position_ids_expanded.91,position_ids_expanded.93,position_ids_expanded.95,position_ids_expanded.97,position_ids_expanded.99">
					<dim>-1</dim>
					<dim>1</dim>
					<dim>-1</dim>
				</port>
			</output>
		</layer>
		<layer id="71" name="__module.model.layers.0.self_attn.rotary_emb/aten::matmul/MatMul" type="MatMul" version="opset1">
			<data transpose_a="false" transpose_b="false" />
			<input>
				<port id="0" precision="FP32">
					<dim>-1</dim>
					<dim>48</dim>
					<dim>1</dim>
				</port>
				<port id="1" precision="FP32">
					<dim>-1</dim>
					<dim>1</dim>
					<dim>-1</dim>
				</port>
			</input>
			<output>
				<port id="2" precision="FP32" names="1090,1255,1420,1585,1750,1915,2080,2245,2410,2575,2740,2905,3070,3235,3400,3565,3730,3895,4060,4225,427,4390,4555,4720,4885,5050,5215,5380,5545,595,760,925">
					<dim>-1</dim>
					<dim>48</dim>
					<dim>-1</dim>
				</port>
			</output>
		</layer>
		<layer id="72" name="__module.model.layers.0.self_attn.rotary_emb/aten::transpose/Constant" type="Const" version="opset1">
			<data element_type="i32" shape="3" offset="112795912" size="12" />
			<output>
				<port id="0" precision="I32">
					<dim>3</dim>
				</port>
			</output>
		</layer>
		<layer id="73" name="__module.model.layers.0.self_attn.rotary_emb/aten::transpose/Transpose" type="Transpose" version="opset1">
			<input>
				<port id="0" precision="FP32">
					<dim>-1</dim>
					<dim>48</dim>
					<dim>-1</dim>
				</port>
				<port id="1" precision="I32">
					<dim>3</dim>
				</port>
			</input>
			<output>
				<port id="2" precision="FP32" names="1091,1256,1421,1586,1751,1916,2081,2246,2411,2576,2741,2906,3071,3236,3401,3566,3731,3896,4061,4226,428,4391,4556,4721,4886,5051,5216,5381,5546,596,761,926,freqs,freqs.1,freqs.11,freqs.13,freqs.15,freqs.17,freqs.19,freqs.21,freqs.23,freqs.25,freqs.27,freqs.29,freqs.3,freqs.31,freqs.33,freqs.35,freqs.37,freqs.39,freqs.41,freqs.43,freqs.45,freqs.47,freqs.49,freqs.5,freqs.51,freqs.53,freqs.55,freqs.57,freqs.59,freqs.61,freqs.7,freqs.9">
					<dim>-1</dim>
					<dim>-1</dim>
					<dim>48</dim>
				</port>
			</output>
		</layer>
		<layer id="74" name="__module.model.layers.0.self_attn.rotary_emb/aten::cat/Concat" type="Concat" version="opset1">
			<data axis="-1" />
			<input>
				<port id="0" precision="FP32">
					<dim>-1</dim>
					<dim>-1</dim>
					<dim>48</dim>
				</port>
				<port id="1" precision="FP32">
					<dim>-1</dim>
					<dim>-1</dim>
					<dim>48</dim>
				</port>
			</input>
			<output>
				<port id="2" precision="FP32" names="1093,1258,1423,1588,1753,1918,2083,2248,2413,2578,2743,2908,3073,3238,3403,3568,3733,3898,4063,4228,430,4393,4558,4723,4888,5053,5218,5383,5548,598,763,928,emb,emb.1,emb.11,emb.13,emb.15,emb.17,emb.19,emb.21,emb.23,emb.25,emb.27,emb.29,emb.3,emb.31,emb.33,emb.35,emb.37,emb.39,emb.41,emb.43,emb.45,emb.47,emb.49,emb.5,emb.51,emb.53,emb.55,emb.57,emb.59,emb.61,emb.7,emb.9">
					<dim>-1</dim>
					<dim>-1</dim>
					<dim>96</dim>
				</port>
			</output>
		</layer>
		<layer id="75" name="__module.model.layers.0.self_attn.rotary_emb/aten::cos/Cos" type="Cos" version="opset1">
			<input>
				<port id="0" precision="FP32">
					<dim>-1</dim>
					<dim>-1</dim>
					<dim>96</dim>
				</port>
			</input>
			<output>
				<port id="1" precision="FP32" names="1094,1259,1424,1589,1754,1919,2084,2249,2414,2579,2744,2909,3074,3239,3404,3569,3734,3899,4064,4229,431,4394,4559,4724,4889,5054,5219,5384,5549,599,764,929">
					<dim>-1</dim>
					<dim>-1</dim>
					<dim>96</dim>
				</port>
			</output>
		</layer>
		<layer id="76" name="Constant_138626" type="Const" version="opset1">
			<data element_type="f32" shape="1, 1, 1" offset="112795924" size="4" />
			<output>
				<port id="0" precision="FP32">
					<dim>1</dim>
					<dim>1</dim>
					<dim>1</dim>
				</port>
			</output>
		</layer>
		<layer id="77" name="__module.model.layers.0.self_attn.rotary_emb/aten::mul/Multiply_2" type="Multiply" version="opset1">
			<data auto_broadcast="numpy" />
			<input>
				<port id="0" precision="FP32">
					<dim>-1</dim>
					<dim>-1</dim>
					<dim>96</dim>
				</port>
				<port id="1" precision="FP32">
					<dim>1</dim>
					<dim>1</dim>
					<dim>1</dim>
				</port>
			</input>
			<output>
				<port id="2" precision="FP32" names="1095,1098,1101,1260,1263,1266,1425,1428,1431,1590,1593,1596,1755,1758,1761,1920,1923,1926,2085,2088,2091,2250,2253,2256,2415,2418,2421,2580,2583,2586,2745,2748,2751,2910,2913,2916,3075,3078,3081,3240,3243,3246,3405,3408,3411,3570,3573,3576,3735,3738,3741,3900,3903,3906,4065,4068,4071,4230,4233,4236,432,435,438,4395,4398,4401,4560,4563,4566,4725,4728,4731,4890,4893,4896,5055,5058,5061,5220,5223,5226,5385,5388,5391,5550,5553,5556,600,603,606,765,768,771,930,933,936,cos.1,cos.103,cos.105,cos.109,cos.111,cos.115,cos.117,cos.121,cos.123,cos.127,cos.129,cos.13,cos.133,cos.135,cos.139,cos.141,cos.145,cos.147,cos.15,cos.151,cos.153,cos.157,cos.159,cos.163,cos.165,cos.169,cos.171,cos.175,cos.177,cos.181,cos.183,cos.187,cos.189,cos.19,cos.21,cos.25,cos.27,cos.3,cos.31,cos.33,cos.37,cos.39,cos.43,cos.45,cos.49,cos.51,cos.55,cos.57,cos.61,cos.63,cos.67,cos.69,cos.7,cos.73,cos.75,cos.79,cos.81,cos.85,cos.87,cos.9,cos.91,cos.93,cos.97,cos.99">
					<dim>-1</dim>
					<dim>-1</dim>
					<dim>96</dim>
				</port>
			</output>
		</layer>
		<layer id="78" name="__module.model.layers.0.self_attn/aten::unsqueeze/Unsqueeze" type="Unsqueeze" version="opset1">
			<input>
				<port id="0" precision="FP32">
					<dim>-1</dim>
					<dim>-1</dim>
					<dim>96</dim>
				</port>
				<port id="1" precision="I64" />
			</input>
			<output>
				<port id="2" precision="FP32" names="1103,1268,1433,1598,1763,1928,2093,2258,2423,2588,2753,2918,3083,3248,3413,3578,3743,3908,4073,4238,440,4403,4568,4733,4898,5063,5228,5393,5558,608,773,938,cos,cos.101,cos.107,cos.11,cos.113,cos.119,cos.125,cos.131,cos.137,cos.143,cos.149,cos.155,cos.161,cos.167,cos.17,cos.173,cos.179,cos.185,cos.23,cos.29,cos.35,cos.41,cos.47,cos.5,cos.53,cos.59,cos.65,cos.71,cos.77,cos.83,cos.89,cos.95">
					<dim>-1</dim>
					<dim>1</dim>
					<dim>-1</dim>
					<dim>96</dim>
				</port>
			</output>
		</layer>
		<layer id="79" name="__module.model.layers.0.self_attn/aten::size/ShapeOf_2" type="ShapeOf" version="opset3">
			<data output_type="i64" />
			<input>
				<port id="0" precision="FP32">
					<dim>-1</dim>
					<dim>1</dim>
					<dim>-1</dim>
					<dim>96</dim>
				</port>
			</input>
			<output>
				<port id="1" precision="I64">
					<dim>4</dim>
				</port>
			</output>
		</layer>
		<layer id="80" name="Constant_118882" type="Const" version="opset1">
			<data element_type="i64" shape="1" offset="112795928" size="8" />
			<output>
				<port id="0" precision="I64">
					<dim>1</dim>
				</port>
			</output>
		</layer>
		<layer id="81" name="__module.model.layers.0.self_attn/aten::size/Constant_2" type="Const" version="opset1">
			<data element_type="i32" shape="" offset="0" size="4" />
			<output>
				<port id="0" precision="I32" />
			</output>
		</layer>
		<layer id="82" name="__module.model.layers.0.self_attn/aten::size/Gather_2" type="Gather" version="opset8">
			<data batch_dims="0" />
			<input>
				<port id="0" precision="I64">
					<dim>4</dim>
				</port>
				<port id="1" precision="I64">
					<dim>1</dim>
				</port>
				<port id="2" precision="I32" />
			</input>
			<output>
				<port id="3" precision="I64" names="1105,1270,1435,1600,1765,1930,2095,2260,2425,2590,2755,2920,3085,3250,3415,3580,3745,3910,4075,4240,4405,442,4570,4735,4900,5065,5230,5395,5560,610,775,940">
					<dim>1</dim>
				</port>
			</output>
		</layer>
		<layer id="83" name="Constant_772" type="Const" version="opset1">
			<data element_type="i64" shape="1" offset="112795640" size="8" />
			<output>
				<port id="0" precision="I64">
					<dim>1</dim>
				</port>
			</output>
		</layer>
		<layer id="84" name="Constant_767" type="Const" version="opset1">
			<data element_type="i64" shape="1" offset="112795928" size="8" />
			<output>
				<port id="0" precision="I64">
					<dim>1</dim>
				</port>
			</output>
		</layer>
		<layer id="85" name="__module.model.layers.0.self_attn/aten::slice/Slice_1" type="Slice" version="opset8">
			<input>
				<port id="0" precision="FP32">
					<dim>-1</dim>
					<dim>32</dim>
					<dim>-1</dim>
					<dim>96</dim>
				</port>
				<port id="1" precision="I64">
					<dim>1</dim>
				</port>
				<port id="2" precision="I64">
					<dim>1</dim>
				</port>
				<port id="3" precision="I64">
					<dim>1</dim>
				</port>
				<port id="4" precision="I64">
					<dim>1</dim>
				</port>
			</input>
			<output>
				<port id="5" precision="FP32" names="443,q_rot.1">
					<dim>-1</dim>
					<dim>32</dim>
					<dim>-1</dim>
					<dim>96</dim>
				</port>
			</output>
		</layer>
		<layer id="86" name="__module.model.layers.0.self_attn/aten::mul/Multiply" type="Multiply" version="opset1">
			<data auto_broadcast="numpy" />
			<input>
				<port id="0" precision="FP32">
					<dim>-1</dim>
					<dim>32</dim>
					<dim>-1</dim>
					<dim>96</dim>
				</port>
				<port id="1" precision="FP32">
					<dim>-1</dim>
					<dim>1</dim>
					<dim>-1</dim>
					<dim>96</dim>
				</port>
			</input>
			<output>
				<port id="2" precision="FP32" names="447">
					<dim>-1</dim>
					<dim>32</dim>
					<dim>-1</dim>
					<dim>96</dim>
				</port>
			</output>
		</layer>
		<layer id="87" name="Constant_462" type="Const" version="opset1">
			<data element_type="i64" shape="1" offset="112795632" size="8" />
			<output>
				<port id="0" precision="I64">
					<dim>1</dim>
				</port>
			</output>
		</layer>
		<layer id="88" name="Constant_464" type="Const" version="opset1">
			<data element_type="i64" shape="1" offset="112795936" size="8" />
			<output>
				<port id="0" precision="I64">
					<dim>1</dim>
				</port>
			</output>
		</layer>
		<layer id="89" name="Constant_466" type="Const" version="opset1">
			<data element_type="i64" shape="1" offset="112795640" size="8" />
			<output>
				<port id="0" precision="I64">
					<dim>1</dim>
				</port>
			</output>
		</layer>
		<layer id="90" name="Constant_460" type="Const" version="opset1">
			<data element_type="i64" shape="1" offset="112795648" size="8" />
			<output>
				<port id="0" precision="I64">
					<dim>1</dim>
				</port>
			</output>
		</layer>
		<layer id="91" name="__module.model.layers.0.self_attn/aten::slice/Slice_5" type="Slice" version="opset8">
			<input>
				<port id="0" precision="FP32">
					<dim>-1</dim>
					<dim>-1</dim>
					<dim>9216</dim>
				</port>
				<port id="1" precision="I64">
					<dim>1</dim>
				</port>
				<port id="2" precision="I64">
					<dim>1</dim>
				</port>
				<port id="3" precision="I64">
					<dim>1</dim>
				</port>
				<port id="4" precision="I64">
					<dim>1</dim>
				</port>
			</input>
			<output>
				<port id="5" precision="FP32" names="394,key_states.3">
					<dim>-1</dim>
					<dim>-1</dim>
					<dim>3072</dim>
				</port>
			</output>
		</layer>
		<layer id="92" name="Constant_147872" type="Const" version="opset1">
			<data element_type="i64" shape="4" offset="112795656" size="32" />
			<output>
				<port id="0" precision="I64">
					<dim>4</dim>
				</port>
			</output>
		</layer>
		<layer id="93" name="__module.model.layers.0.self_attn/aten::view/Reshape_1" type="Reshape" version="opset1">
			<data special_zero="true" />
			<input>
				<port id="0" precision="FP32">
					<dim>-1</dim>
					<dim>-1</dim>
					<dim>3072</dim>
				</port>
				<port id="1" precision="I64">
					<dim>4</dim>
				</port>
			</input>
			<output>
				<port id="2" precision="FP32" names="400">
					<dim>-1</dim>
					<dim>-1</dim>
					<dim>32</dim>
					<dim>96</dim>
				</port>
			</output>
		</layer>
		<layer id="94" name="__module.model.layers.0.self_attn/aten::transpose/Constant_1" type="Const" version="opset1">
			<data element_type="i32" shape="4" offset="112795688" size="16" />
			<output>
				<port id="0" precision="I32">
					<dim>4</dim>
				</port>
			</output>
		</layer>
		<layer id="95" name="__module.model.layers.0.self_attn/aten::transpose/Transpose_1" type="Transpose" version="opset1">
			<input>
				<port id="0" precision="FP32">
					<dim>-1</dim>
					<dim>-1</dim>
					<dim>32</dim>
					<dim>96</dim>
				</port>
				<port id="1" precision="I32">
					<dim>4</dim>
				</port>
			</input>
			<output>
				<port id="2" precision="FP32" names="401,key_states.5">
					<dim>-1</dim>
					<dim>32</dim>
					<dim>-1</dim>
					<dim>96</dim>
				</port>
			</output>
		</layer>
		<layer id="96" name="Constant_787" type="Const" version="opset1">
			<data element_type="i64" shape="1" offset="4" size="8" />
			<output>
				<port id="0" precision="I64">
					<dim>1</dim>
				</port>
			</output>
		</layer>
		<layer id="97" name="Constant_790" type="Const" version="opset1">
			<data element_type="i64" shape="1" offset="112795640" size="8" />
			<output>
				<port id="0" precision="I64">
					<dim>1</dim>
				</port>
			</output>
		</layer>
		<layer id="98" name="Constant_785" type="Const" version="opset1">
			<data element_type="i64" shape="1" offset="112795928" size="8" />
			<output>
				<port id="0" precision="I64">
					<dim>1</dim>
				</port>
			</output>
		</layer>
		<layer id="99" name="__module.model.layers.0.self_attn/aten::slice/Slice_6" type="Slice" version="opset8">
			<input>
				<port id="0" precision="FP32">
					<dim>-1</dim>
					<dim>32</dim>
					<dim>-1</dim>
					<dim>96</dim>
				</port>
				<port id="1" precision="I64">
					<dim>1</dim>
				</port>
				<port id="2" precision="I64">
					<dim>1</dim>
				</port>
				<port id="3" precision="I64">
					<dim>1</dim>
				</port>
				<port id="4" precision="I64">
					<dim>1</dim>
				</port>
			</input>
			<output>
				<port id="5" precision="FP32" names="445,k_rot.1">
					<dim>-1</dim>
					<dim>32</dim>
					<dim>-1</dim>
					<dim>96</dim>
				</port>
			</output>
		</layer>
		<layer id="100" name="__module.model.layers.0.self_attn/aten::size/ShapeOf_5" type="ShapeOf" version="opset3">
			<data output_type="i64" />
			<input>
				<port id="0" precision="FP32">
					<dim>-1</dim>
					<dim>32</dim>
					<dim>-1</dim>
					<dim>96</dim>
				</port>
			</input>
			<output>
				<port id="1" precision="I64">
					<dim>4</dim>
				</port>
			</output>
		</layer>
		<layer id="101" name="230" type="Const" version="opset1">
			<data element_type="i64" shape="" offset="112795928" size="8" />
			<output>
				<port id="0" precision="I64" names="230" />
			</output>
		</layer>
		<layer id="102" name="__module.model.layers.0.self_attn/aten::size/Constant_3" type="Const" version="opset1">
			<data element_type="i32" shape="" offset="0" size="4" />
			<output>
				<port id="0" precision="I32" />
			</output>
		</layer>
		<layer id="103" name="__module.model.layers.0.self_attn/aten::size/Gather_3" type="Gather" version="opset8">
			<data batch_dims="0" />
			<input>
				<port id="0" precision="I64">
					<dim>4</dim>
				</port>
				<port id="1" precision="I64" />
				<port id="2" precision="I32" />
			</input>
			<output>
				<port id="3" precision="I64" names="1111,1116,1129,1134,1276,1281,1294,1299,1441,1446,1459,1464,1606,1611,1624,1629,1771,1776,1789,1794,1936,1941,1954,1959,2101,2106,2119,2124,2266,2271,2284,2289,2431,2436,2449,2454,2596,2601,2614,2619,2761,2766,2779,2784,2926,2931,2944,2949,3091,3096,3109,3114,3256,3261,3274,3279,3421,3426,3439,3444,3586,3591,3604,3609,3751,3756,3769,3774,3916,3921,3934,3939,4081,4086,4099,4104,4246,4251,4264,4269,4411,4416,4429,4434,448,453,4576,4581,4594,4599,466,471,4741,4746,4759,4764,4906,4911,4924,4929,5071,5076,5089,5094,5236,5241,5254,5259,5401,5406,5419,5424,5566,5571,5584,5589,616,621,634,639,781,786,799,804,946,951,964,969" />
			</output>
		</layer>
		<layer id="104" name="Constant_58" type="Const" version="opset1">
			<data element_type="i64" shape="" offset="112795648" size="8" />
			<output>
				<port id="0" precision="I64" names="219" />
			</output>
		</layer>
		<layer id="105" name="__module.model.layers.0.self_attn/aten::floor_divide/Divide" type="Divide" version="opset1">
			<data auto_broadcast="numpy" m_pythondiv="true" />
			<input>
				<port id="0" precision="I64" />
				<port id="1" precision="I64" />
			</input>
			<output>
				<port id="2" precision="I64" />
			</output>
		</layer>
		<layer id="106" name="__module.model.layers.0.self_attn/aten::floor_divide/Floor" type="Floor" version="opset1">
			<input>
				<port id="0" precision="I64" />
			</input>
			<output>
				<port id="1" precision="I64" names="1113,1114,1118,1119,1131,1132,1136,1137,1278,1279,1283,1284,1296,1297,1301,1302,1443,1444,1448,1449,1461,1462,1466,1467,1608,1609,1613,1614,1626,1627,1631,1632,1773,1774,1778,1779,1791,1792,1796,1797,1938,1939,1943,1944,1956,1957,1961,1962,2103,2104,2108,2109,2121,2122,2126,2127,2268,2269,2273,2274,2286,2287,2291,2292,2433,2434,2438,2439,2451,2452,2456,2457,2598,2599,2603,2604,2616,2617,2621,2622,2763,2764,2768,2769,2781,2782,2786,2787,2928,2929,2933,2934,2946,2947,2951,2952,3093,3094,3098,3099,3111,3112,3116,3117,3258,3259,3263,3264,3276,3277,3281,3282,3423,3424,3428,3429,3441,3442,3446,3447,3588,3589,3593,3594,3606,3607,3611,3612,3753,3754,3758,3759,3771,3772,3776,3777,3918,3919,3923,3924,3936,3937,3941,3942,4083,4084,4088,4089,4101,4102,4106,4107,4248,4249,4253,4254,4266,4267,4271,4272,4413,4414,4418,4419,4431,4432,4436,4437,450,451,455,456,4578,4579,4583,4584,4596,4597,4601,4602,468,469,473,474,4743,4744,4748,4749,4761,4762,4766,4767,4908,4909,4913,4914,4926,4927,4931,4932,5073,5074,5078,5079,5091,5092,5096,5097,5238,5239,5243,5244,5256,5257,5261,5262,5403,5404,5408,5409,5421,5422,5426,5427,5568,5569,5573,5574,5586,5587,5591,5592,618,619,623,624,636,637,641,642,783,784,788,789,801,802,806,807,948,949,953,954,966,967,971,972" />
			</output>
		</layer>
		<layer id="107" name="Constant_88641" type="Const" version="opset1">
			<data element_type="i64" shape="1" offset="98621412" size="8" />
			<output>
				<port id="0" precision="I64">
					<dim>1</dim>
				</port>
			</output>
		</layer>
		<layer id="108" name="__module.model.layers.0.self_attn/aten::slice/Reshape_1" type="Reshape" version="opset1">
			<data special_zero="false" />
			<input>
				<port id="0" precision="I64" />
				<port id="1" precision="I64">
					<dim>1</dim>
				</port>
			</input>
			<output>
				<port id="2" precision="I64">
					<dim>1</dim>
				</port>
			</output>
		</layer>
		<layer id="109" name="Constant_951" type="Const" version="opset1">
			<data element_type="i64" shape="1" offset="112795944" size="8" />
			<output>
				<port id="0" precision="I64">
					<dim>1</dim>
				</port>
			</output>
		</layer>
		<layer id="110" name="Constant_953" type="Const" version="opset1">
			<data element_type="i64" shape="1" offset="112795640" size="8" />
			<output>
				<port id="0" precision="I64">
					<dim>1</dim>
				</port>
			</output>
		</layer>
		<layer id="111" name="Constant_910" type="Const" version="opset1">
			<data element_type="i64" shape="1" offset="112795928" size="8" />
			<output>
				<port id="0" precision="I64">
					<dim>1</dim>
				</port>
			</output>
		</layer>
		<layer id="112" name="__module.model.layers.0.self_attn/aten::slice/Slice_2" type="Slice" version="opset8">
			<input>
				<port id="0" precision="FP32">
					<dim>-1</dim>
					<dim>32</dim>
					<dim>-1</dim>
					<dim>96</dim>
				</port>
				<port id="1" precision="I64">
					<dim>1</dim>
				</port>
				<port id="2" precision="I64">
					<dim>1</dim>
				</port>
				<port id="3" precision="I64">
					<dim>1</dim>
				</port>
				<port id="4" precision="I64">
					<dim>1</dim>
				</port>
			</input>
			<output>
				<port id="5" precision="FP32" names="457,x2.1">
					<dim>-1</dim>
					<dim>32</dim>
					<dim>-1</dim>
					<dim>48</dim>
				</port>
			</output>
		</layer>
		<layer id="113" name="__module.model.layers.0.self_attn/aten::neg/Constant" type="Const" version="opset1">
			<data element_type="i32" shape="" offset="112795952" size="4" />
			<output>
				<port id="0" precision="I32" />
			</output>
		</layer>
		<layer id="114" name="__module.model.layers.0.self_attn/aten::neg/ConvertLike" type="Convert" version="opset1">
			<data destination_type="f32" />
			<input>
				<port id="0" precision="I32" />
			</input>
			<output>
				<port id="1" precision="FP32" />
			</output>
		</layer>
		<layer id="115" name="__module.model.layers.0.self_attn/aten::neg/Multiply" type="Multiply" version="opset1">
			<data auto_broadcast="numpy" />
			<input>
				<port id="0" precision="FP32">
					<dim>-1</dim>
					<dim>32</dim>
					<dim>-1</dim>
					<dim>48</dim>
				</port>
				<port id="1" precision="FP32" />
			</input>
			<output>
				<port id="2" precision="FP32" names="458">
					<dim>-1</dim>
					<dim>32</dim>
					<dim>-1</dim>
					<dim>48</dim>
				</port>
			</output>
		</layer>
		<layer id="116" name="Constant_818" type="Const" version="opset1">
			<data element_type="i64" shape="1" offset="4" size="8" />
			<output>
				<port id="0" precision="I64">
					<dim>1</dim>
				</port>
			</output>
		</layer>
		<layer id="117" name="Constant_859" type="Const" version="opset1">
			<data element_type="i64" shape="1" offset="112795640" size="8" />
			<output>
				<port id="0" precision="I64">
					<dim>1</dim>
				</port>
			</output>
		</layer>
		<layer id="118" name="Constant_816" type="Const" version="opset1">
			<data element_type="i64" shape="1" offset="112795928" size="8" />
			<output>
				<port id="0" precision="I64">
					<dim>1</dim>
				</port>
			</output>
		</layer>
		<layer id="119" name="__module.model.layers.0.self_attn/aten::slice/Slice_3" type="Slice" version="opset8">
			<input>
				<port id="0" precision="FP32">
					<dim>-1</dim>
					<dim>32</dim>
					<dim>-1</dim>
					<dim>96</dim>
				</port>
				<port id="1" precision="I64">
					<dim>1</dim>
				</port>
				<port id="2" precision="I64">
					<dim>1</dim>
				</port>
				<port id="3" precision="I64">
					<dim>1</dim>
				</port>
				<port id="4" precision="I64">
					<dim>1</dim>
				</port>
			</input>
			<output>
				<port id="5" precision="FP32" names="452,x1.1">
					<dim>-1</dim>
					<dim>32</dim>
					<dim>-1</dim>
					<dim>48</dim>
				</port>
			</output>
		</layer>
		<layer id="120" name="__module.model.layers.0.self_attn/aten::cat/Concat" type="Concat" version="opset1">
			<data axis="-1" />
			<input>
				<port id="0" precision="FP32">
					<dim>-1</dim>
					<dim>32</dim>
					<dim>-1</dim>
					<dim>48</dim>
				</port>
				<port id="1" precision="FP32">
					<dim>-1</dim>
					<dim>32</dim>
					<dim>-1</dim>
					<dim>48</dim>
				</port>
			</input>
			<output>
				<port id="2" precision="FP32" names="460">
					<dim>-1</dim>
					<dim>32</dim>
					<dim>-1</dim>
					<dim>96</dim>
				</port>
			</output>
		</layer>
		<layer id="121" name="__module.model.layers.0.self_attn.rotary_emb/aten::sin/Sin" type="Sin" version="opset1">
			<input>
				<port id="0" precision="FP32">
					<dim>-1</dim>
					<dim>-1</dim>
					<dim>96</dim>
				</port>
			</input>
			<output>
				<port id="1" precision="FP32" names="1096,1261,1426,1591,1756,1921,2086,2251,2416,2581,2746,2911,3076,3241,3406,3571,3736,3901,4066,4231,433,4396,4561,4726,4891,5056,5221,5386,5551,601,766,931">
					<dim>-1</dim>
					<dim>-1</dim>
					<dim>96</dim>
				</port>
			</output>
		</layer>
		<layer id="122" name="Constant_138627" type="Const" version="opset1">
			<data element_type="f32" shape="1, 1, 1" offset="112795924" size="4" />
			<output>
				<port id="0" precision="FP32">
					<dim>1</dim>
					<dim>1</dim>
					<dim>1</dim>
				</port>
			</output>
		</layer>
		<layer id="123" name="__module.model.layers.0.self_attn.rotary_emb/aten::mul/Multiply_3" type="Multiply" version="opset1">
			<data auto_broadcast="numpy" />
			<input>
				<port id="0" precision="FP32">
					<dim>-1</dim>
					<dim>-1</dim>
					<dim>96</dim>
				</port>
				<port id="1" precision="FP32">
					<dim>1</dim>
					<dim>1</dim>
					<dim>1</dim>
				</port>
			</input>
			<output>
				<port id="2" precision="FP32" names="1097,1099,1102,1262,1264,1267,1427,1429,1432,1592,1594,1597,1757,1759,1762,1922,1924,1927,2087,2089,2092,2252,2254,2257,2417,2419,2422,2582,2584,2587,2747,2749,2752,2912,2914,2917,3077,3079,3082,3242,3244,3247,3407,3409,3412,3572,3574,3577,3737,3739,3742,3902,3904,3907,4067,4069,4072,4232,4234,4237,434,436,439,4397,4399,4402,4562,4564,4567,4727,4729,4732,4892,4894,4897,5057,5059,5062,5222,5224,5227,5387,5389,5392,5552,5554,5557,602,604,607,767,769,772,932,934,937,sin.1,sin.103,sin.105,sin.109,sin.111,sin.115,sin.117,sin.121,sin.123,sin.127,sin.129,sin.13,sin.133,sin.135,sin.139,sin.141,sin.145,sin.147,sin.15,sin.151,sin.153,sin.157,sin.159,sin.163,sin.165,sin.169,sin.171,sin.175,sin.177,sin.181,sin.183,sin.187,sin.189,sin.19,sin.21,sin.25,sin.27,sin.3,sin.31,sin.33,sin.37,sin.39,sin.43,sin.45,sin.49,sin.51,sin.55,sin.57,sin.61,sin.63,sin.67,sin.69,sin.7,sin.73,sin.75,sin.79,sin.81,sin.85,sin.87,sin.9,sin.91,sin.93,sin.97,sin.99">
					<dim>-1</dim>
					<dim>-1</dim>
					<dim>96</dim>
				</port>
			</output>
		</layer>
		<layer id="124" name="__module.model.layers.0.self_attn/aten::unsqueeze/Unsqueeze_1" type="Unsqueeze" version="opset1">
			<input>
				<port id="0" precision="FP32">
					<dim>-1</dim>
					<dim>-1</dim>
					<dim>96</dim>
				</port>
				<port id="1" precision="I64" />
			</input>
			<output>
				<port id="2" precision="FP32" names="1104,1269,1434,1599,1764,1929,2094,2259,2424,2589,2754,2919,3084,3249,3414,3579,3744,3909,4074,4239,4404,441,4569,4734,4899,5064,5229,5394,5559,609,774,939,sin,sin.101,sin.107,sin.11,sin.113,sin.119,sin.125,sin.131,sin.137,sin.143,sin.149,sin.155,sin.161,sin.167,sin.17,sin.173,sin.179,sin.185,sin.23,sin.29,sin.35,sin.41,sin.47,sin.5,sin.53,sin.59,sin.65,sin.71,sin.77,sin.83,sin.89,sin.95">
					<dim>-1</dim>
					<dim>1</dim>
					<dim>-1</dim>
					<dim>96</dim>
				</port>
			</output>
		</layer>
		<layer id="125" name="__module.model.layers.0.self_attn/aten::mul/Multiply_1" type="Multiply" version="opset1">
			<data auto_broadcast="numpy" />
			<input>
				<port id="0" precision="FP32">
					<dim>-1</dim>
					<dim>32</dim>
					<dim>-1</dim>
					<dim>96</dim>
				</port>
				<port id="1" precision="FP32">
					<dim>-1</dim>
					<dim>1</dim>
					<dim>-1</dim>
					<dim>96</dim>
				</port>
			</input>
			<output>
				<port id="2" precision="FP32" names="461">
					<dim>-1</dim>
					<dim>32</dim>
					<dim>-1</dim>
					<dim>96</dim>
				</port>
			</output>
		</layer>
		<layer id="126" name="__module.model.layers.0.self_attn/aten::add/Add" type="Add" version="opset1">
			<data auto_broadcast="numpy" />
			<input>
				<port id="0" precision="FP32">
					<dim>-1</dim>
					<dim>32</dim>
					<dim>-1</dim>
					<dim>96</dim>
				</port>
				<port id="1" precision="FP32">
					<dim>-1</dim>
					<dim>32</dim>
					<dim>-1</dim>
					<dim>96</dim>
				</port>
			</input>
			<output>
				<port id="2" precision="FP32" names="462,464,query_states.3">
					<dim>-1</dim>
					<dim>32</dim>
					<dim>-1</dim>
					<dim>96</dim>
				</port>
			</output>
		</layer>
		<layer id="127" name="Constant_153681" type="Const" version="opset1">
			<data element_type="f32" shape="" offset="0" size="4" />
			<output>
				<port id="0" precision="FP32" />
			</output>
		</layer>
		<layer id="128" name="Constant_153674" type="Const" version="opset1">
			<data element_type="i64" shape="1" offset="12" size="8" />
			<output>
				<port id="0" precision="I64">
					<dim>1</dim>
				</port>
			</output>
		</layer>
		<layer id="129" name="Constant_153676" type="Const" version="opset1">
			<data element_type="i64" shape="1" offset="4" size="8" />
			<output>
				<port id="0" precision="I64">
					<dim>1</dim>
				</port>
			</output>
		</layer>
		<layer id="130" name="Constant_153678" type="Const" version="opset1">
			<data element_type="i64" shape="1" offset="20" size="8" />
			<output>
				<port id="0" precision="I64">
					<dim>1</dim>
				</port>
			</output>
		</layer>
		<layer id="131" name="Concat_153679" type="Concat" version="opset1">
			<data axis="0" />
			<input>
				<port id="0" precision="I64">
					<dim>1</dim>
				</port>
				<port id="1" precision="I64">
					<dim>1</dim>
				</port>
				<port id="2" precision="I64">
					<dim>1</dim>
				</port>
				<port id="3" precision="I64">
					<dim>1</dim>
				</port>
			</input>
			<output>
				<port id="4" precision="I64">
					<dim>4</dim>
				</port>
			</output>
		</layer>
		<layer id="132" name="Broadcast_153682" type="Broadcast" version="opset3">
			<data mode="numpy" />
			<input>
				<port id="0" precision="FP32" />
				<port id="1" precision="I64">
					<dim>4</dim>
				</port>
			</input>
			<output>
				<port id="2" precision="FP32">
					<dim>-1</dim>
					<dim>32</dim>
					<dim>0</dim>
					<dim>96</dim>
				</port>
			</output>
		</layer>
		<layer id="133" name="ReadValue_152484" type="ReadValue" version="opset6">
			<data variable_id="past_key_values.0.keypresent.0.key" variable_type="f32" variable_shape="?,32,?,96" />
			<input>
				<port id="0" precision="FP32">
					<dim>-1</dim>
					<dim>32</dim>
					<dim>0</dim>
					<dim>96</dim>
				</port>
			</input>
			<output>
				<port id="1" precision="FP32" names="past_key_values.0.key">
					<dim>-1</dim>
					<dim>32</dim>
					<dim>-1</dim>
					<dim>96</dim>
				</port>
			</output>
		</layer>
		<layer id="134" name="Constant_151250" type="Const" version="opset1">
			<data element_type="i64" shape="" offset="4" size="8" />
			<output>
				<port id="0" precision="I64" />
			</output>
		</layer>
		<layer id="135" name="Gather_151251" type="Gather" version="opset8">
			<data batch_dims="0" />
			<input>
				<port id="0" precision="FP32">
					<dim>-1</dim>
					<dim>32</dim>
					<dim>-1</dim>
					<dim>96</dim>
				</port>
				<port id="1" precision="I32">
					<dim>-1</dim>
				</port>
				<port id="2" precision="I64" />
			</input>
			<output>
				<port id="3" precision="FP32">
					<dim>-1</dim>
					<dim>32</dim>
					<dim>-1</dim>
					<dim>96</dim>
				</port>
			</output>
		</layer>
		<layer id="136" name="__module.model.layers.0.self_attn/aten::mul/Multiply_2" type="Multiply" version="opset1">
			<data auto_broadcast="numpy" />
			<input>
				<port id="0" precision="FP32">
					<dim>-1</dim>
					<dim>32</dim>
					<dim>-1</dim>
					<dim>96</dim>
				</port>
				<port id="1" precision="FP32">
					<dim>-1</dim>
					<dim>1</dim>
					<dim>-1</dim>
					<dim>96</dim>
				</port>
			</input>
			<output>
				<port id="2" precision="FP32" names="465">
					<dim>-1</dim>
					<dim>32</dim>
					<dim>-1</dim>
					<dim>96</dim>
				</port>
			</output>
		</layer>
		<layer id="137" name="Constant_1164" type="Const" version="opset1">
			<data element_type="i64" shape="1" offset="112795944" size="8" />
			<output>
				<port id="0" precision="I64">
					<dim>1</dim>
				</port>
			</output>
		</layer>
		<layer id="138" name="Constant_1166" type="Const" version="opset1">
			<data element_type="i64" shape="1" offset="112795640" size="8" />
			<output>
				<port id="0" precision="I64">
					<dim>1</dim>
				</port>
			</output>
		</layer>
		<layer id="139" name="Constant_1123" type="Const" version="opset1">
			<data element_type="i64" shape="1" offset="112795928" size="8" />
			<output>
				<port id="0" precision="I64">
					<dim>1</dim>
				</port>
			</output>
		</layer>
		<layer id="140" name="__module.model.layers.0.self_attn/aten::slice/Slice_7" type="Slice" version="opset8">
			<input>
				<port id="0" precision="FP32">
					<dim>-1</dim>
					<dim>32</dim>
					<dim>-1</dim>
					<dim>96</dim>
				</port>
				<port id="1" precision="I64">
					<dim>1</dim>
				</port>
				<port id="2" precision="I64">
					<dim>1</dim>
				</port>
				<port id="3" precision="I64">
					<dim>1</dim>
				</port>
				<port id="4" precision="I64">
					<dim>1</dim>
				</port>
			</input>
			<output>
				<port id="5" precision="FP32" names="475,x2.3">
					<dim>-1</dim>
					<dim>32</dim>
					<dim>-1</dim>
					<dim>48</dim>
				</port>
			</output>
		</layer>
		<layer id="141" name="__module.model.layers.0.self_attn/aten::neg/Constant_1" type="Const" version="opset1">
			<data element_type="i32" shape="" offset="112795952" size="4" />
			<output>
				<port id="0" precision="I32" />
			</output>
		</layer>
		<layer id="142" name="__module.model.layers.0.self_attn/aten::neg/ConvertLike_1" type="Convert" version="opset1">
			<data destination_type="f32" />
			<input>
				<port id="0" precision="I32" />
			</input>
			<output>
				<port id="1" precision="FP32" />
			</output>
		</layer>
		<layer id="143" name="__module.model.layers.0.self_attn/aten::neg/Multiply_1" type="Multiply" version="opset1">
			<data auto_broadcast="numpy" />
			<input>
				<port id="0" precision="FP32">
					<dim>-1</dim>
					<dim>32</dim>
					<dim>-1</dim>
					<dim>48</dim>
				</port>
				<port id="1" precision="FP32" />
			</input>
			<output>
				<port id="2" precision="FP32" names="476">
					<dim>-1</dim>
					<dim>32</dim>
					<dim>-1</dim>
					<dim>48</dim>
				</port>
			</output>
		</layer>
		<layer id="144" name="Constant_1031" type="Const" version="opset1">
			<data element_type="i64" shape="1" offset="4" size="8" />
			<output>
				<port id="0" precision="I64">
					<dim>1</dim>
				</port>
			</output>
		</layer>
		<layer id="145" name="Constant_1072" type="Const" version="opset1">
			<data element_type="i64" shape="1" offset="112795640" size="8" />
			<output>
				<port id="0" precision="I64">
					<dim>1</dim>
				</port>
			</output>
		</layer>
		<layer id="146" name="Constant_1029" type="Const" version="opset1">
			<data element_type="i64" shape="1" offset="112795928" size="8" />
			<output>
				<port id="0" precision="I64">
					<dim>1</dim>
				</port>
			</output>
		</layer>
		<layer id="147" name="__module.model.layers.0.self_attn/aten::slice/Slice_8" type="Slice" version="opset8">
			<input>
				<port id="0" precision="FP32">
					<dim>-1</dim>
					<dim>32</dim>
					<dim>-1</dim>
					<dim>96</dim>
				</port>
				<port id="1" precision="I64">
					<dim>1</dim>
				</port>
				<port id="2" precision="I64">
					<dim>1</dim>
				</port>
				<port id="3" precision="I64">
					<dim>1</dim>
				</port>
				<port id="4" precision="I64">
					<dim>1</dim>
				</port>
			</input>
			<output>
				<port id="5" precision="FP32" names="470,x1.3">
					<dim>-1</dim>
					<dim>32</dim>
					<dim>-1</dim>
					<dim>48</dim>
				</port>
			</output>
		</layer>
		<layer id="148" name="__module.model.layers.0.self_attn/aten::cat/Concat_2" type="Concat" version="opset1">
			<data axis="-1" />
			<input>
				<port id="0" precision="FP32">
					<dim>-1</dim>
					<dim>32</dim>
					<dim>-1</dim>
					<dim>48</dim>
				</port>
				<port id="1" precision="FP32">
					<dim>-1</dim>
					<dim>32</dim>
					<dim>-1</dim>
					<dim>48</dim>
				</port>
			</input>
			<output>
				<port id="2" precision="FP32" names="478">
					<dim>-1</dim>
					<dim>32</dim>
					<dim>-1</dim>
					<dim>96</dim>
				</port>
			</output>
		</layer>
		<layer id="149" name="__module.model.layers.0.self_attn/aten::mul/Multiply_3" type="Multiply" version="opset1">
			<data auto_broadcast="numpy" />
			<input>
				<port id="0" precision="FP32">
					<dim>-1</dim>
					<dim>32</dim>
					<dim>-1</dim>
					<dim>96</dim>
				</port>
				<port id="1" precision="FP32">
					<dim>-1</dim>
					<dim>1</dim>
					<dim>-1</dim>
					<dim>96</dim>
				</port>
			</input>
			<output>
				<port id="2" precision="FP32" names="479">
					<dim>-1</dim>
					<dim>32</dim>
					<dim>-1</dim>
					<dim>96</dim>
				</port>
			</output>
		</layer>
		<layer id="150" name="__module.model.layers.0.self_attn/aten::add/Add_1" type="Add" version="opset1">
			<data auto_broadcast="numpy" />
			<input>
				<port id="0" precision="FP32">
					<dim>-1</dim>
					<dim>32</dim>
					<dim>-1</dim>
					<dim>96</dim>
				</port>
				<port id="1" precision="FP32">
					<dim>-1</dim>
					<dim>32</dim>
					<dim>-1</dim>
					<dim>96</dim>
				</port>
			</input>
			<output>
				<port id="2" precision="FP32" names="480,482,key_states.7">
					<dim>-1</dim>
					<dim>32</dim>
					<dim>-1</dim>
					<dim>96</dim>
				</port>
			</output>
		</layer>
		<layer id="151" name="__module.model.layers.0.self_attn/aten::cat/Concat_4" type="Concat" version="opset1">
			<data axis="-2" />
			<input>
				<port id="0" precision="FP32">
					<dim>-1</dim>
					<dim>32</dim>
					<dim>-1</dim>
					<dim>96</dim>
				</port>
				<port id="1" precision="FP32">
					<dim>-1</dim>
					<dim>32</dim>
					<dim>-1</dim>
					<dim>96</dim>
				</port>
			</input>
			<output>
				<port id="2" precision="FP32" names="hidden_states.11">
					<dim>-1</dim>
					<dim>32</dim>
					<dim>-1</dim>
					<dim>96</dim>
				</port>
			</output>
		</layer>
		<layer id="152" name="Constant_153693" type="Const" version="opset1">
			<data element_type="f32" shape="" offset="0" size="4" />
			<output>
				<port id="0" precision="FP32" />
			</output>
		</layer>
		<layer id="153" name="Constant_153686" type="Const" version="opset1">
			<data element_type="i64" shape="1" offset="12" size="8" />
			<output>
				<port id="0" precision="I64">
					<dim>1</dim>
				</port>
			</output>
		</layer>
		<layer id="154" name="Constant_153688" type="Const" version="opset1">
			<data element_type="i64" shape="1" offset="4" size="8" />
			<output>
				<port id="0" precision="I64">
					<dim>1</dim>
				</port>
			</output>
		</layer>
		<layer id="155" name="Constant_153690" type="Const" version="opset1">
			<data element_type="i64" shape="1" offset="20" size="8" />
			<output>
				<port id="0" precision="I64">
					<dim>1</dim>
				</port>
			</output>
		</layer>
		<layer id="156" name="Concat_153691" type="Concat" version="opset1">
			<data axis="0" />
			<input>
				<port id="0" precision="I64">
					<dim>1</dim>
				</port>
				<port id="1" precision="I64">
					<dim>1</dim>
				</port>
				<port id="2" precision="I64">
					<dim>1</dim>
				</port>
				<port id="3" precision="I64">
					<dim>1</dim>
				</port>
			</input>
			<output>
				<port id="4" precision="I64">
					<dim>4</dim>
				</port>
			</output>
		</layer>
		<layer id="157" name="Broadcast_153694" type="Broadcast" version="opset3">
			<data mode="numpy" />
			<input>
				<port id="0" precision="FP32" />
				<port id="1" precision="I64">
					<dim>4</dim>
				</port>
			</input>
			<output>
				<port id="2" precision="FP32">
					<dim>-1</dim>
					<dim>32</dim>
					<dim>0</dim>
					<dim>96</dim>
				</port>
			</output>
		</layer>
		<layer id="158" name="ReadValue_152486" type="ReadValue" version="opset6">
			<data variable_id="past_key_values.0.valuepresent.0.value" variable_type="f32" variable_shape="?,32,?,96" />
			<input>
				<port id="0" precision="FP32">
					<dim>-1</dim>
					<dim>32</dim>
					<dim>0</dim>
					<dim>96</dim>
				</port>
			</input>
			<output>
				<port id="1" precision="FP32" names="past_key_values.0.value">
					<dim>-1</dim>
					<dim>32</dim>
					<dim>-1</dim>
					<dim>96</dim>
				</port>
			</output>
		</layer>
		<layer id="159" name="Constant_151253" type="Const" version="opset1">
			<data element_type="i64" shape="" offset="4" size="8" />
			<output>
				<port id="0" precision="I64" />
			</output>
		</layer>
		<layer id="160" name="Gather_151254" type="Gather" version="opset8">
			<data batch_dims="0" />
			<input>
				<port id="0" precision="FP32">
					<dim>-1</dim>
					<dim>32</dim>
					<dim>-1</dim>
					<dim>96</dim>
				</port>
				<port id="1" precision="I32">
					<dim>-1</dim>
				</port>
				<port id="2" precision="I64" />
			</input>
			<output>
				<port id="3" precision="FP32">
					<dim>-1</dim>
					<dim>32</dim>
					<dim>-1</dim>
					<dim>96</dim>
				</port>
			</output>
		</layer>
		<layer id="161" name="Constant_472" type="Const" version="opset1">
			<data element_type="i64" shape="1" offset="112795936" size="8" />
			<output>
				<port id="0" precision="I64">
					<dim>1</dim>
				</port>
			</output>
		</layer>
		<layer id="162" name="Constant_474" type="Const" version="opset1">
			<data element_type="i64" shape="1" offset="112795944" size="8" />
			<output>
				<port id="0" precision="I64">
					<dim>1</dim>
				</port>
			</output>
		</layer>
		<layer id="163" name="Constant_476" type="Const" version="opset1">
			<data element_type="i64" shape="1" offset="112795640" size="8" />
			<output>
				<port id="0" precision="I64">
					<dim>1</dim>
				</port>
			</output>
		</layer>
		<layer id="164" name="Constant_470" type="Const" version="opset1">
			<data element_type="i64" shape="1" offset="112795648" size="8" />
			<output>
				<port id="0" precision="I64">
					<dim>1</dim>
				</port>
			</output>
		</layer>
		<layer id="165" name="__module.model.layers.0.self_attn/aten::slice/Slice_10" type="Slice" version="opset8">
			<input>
				<port id="0" precision="FP32">
					<dim>-1</dim>
					<dim>-1</dim>
					<dim>9216</dim>
				</port>
				<port id="1" precision="I64">
					<dim>1</dim>
				</port>
				<port id="2" precision="I64">
					<dim>1</dim>
				</port>
				<port id="3" precision="I64">
					<dim>1</dim>
				</port>
				<port id="4" precision="I64">
					<dim>1</dim>
				</port>
			</input>
			<output>
				<port id="5" precision="FP32" names="395,value_states.1">
					<dim>-1</dim>
					<dim>-1</dim>
					<dim>3072</dim>
				</port>
			</output>
		</layer>
		<layer id="166" name="Constant_147873" type="Const" version="opset1">
			<data element_type="i64" shape="4" offset="112795656" size="32" />
			<output>
				<port id="0" precision="I64">
					<dim>4</dim>
				</port>
			</output>
		</layer>
		<layer id="167" name="__module.model.layers.0.self_attn/aten::view/Reshape_2" type="Reshape" version="opset1">
			<data special_zero="true" />
			<input>
				<port id="0" precision="FP32">
					<dim>-1</dim>
					<dim>-1</dim>
					<dim>3072</dim>
				</port>
				<port id="1" precision="I64">
					<dim>4</dim>
				</port>
			</input>
			<output>
				<port id="2" precision="FP32" names="403">
					<dim>-1</dim>
					<dim>-1</dim>
					<dim>32</dim>
					<dim>96</dim>
				</port>
			</output>
		</layer>
		<layer id="168" name="__module.model.layers.0.self_attn/aten::transpose/Constant_2" type="Const" version="opset1">
			<data element_type="i32" shape="4" offset="112795688" size="16" />
			<output>
				<port id="0" precision="I32">
					<dim>4</dim>
				</port>
			</output>
		</layer>
		<layer id="169" name="__module.model.layers.0.self_attn/aten::transpose/Transpose_2" type="Transpose" version="opset1">
			<input>
				<port id="0" precision="FP32">
					<dim>-1</dim>
					<dim>-1</dim>
					<dim>32</dim>
					<dim>96</dim>
				</port>
				<port id="1" precision="I32">
					<dim>4</dim>
				</port>
			</input>
			<output>
				<port id="2" precision="FP32" names="404,value_states.3">
					<dim>-1</dim>
					<dim>32</dim>
					<dim>-1</dim>
					<dim>96</dim>
				</port>
			</output>
		</layer>
		<layer id="170" name="__module.model.layers.0.self_attn/aten::cat/Concat_5" type="Concat" version="opset1">
			<data axis="-2" />
			<input>
				<port id="0" precision="FP32">
					<dim>-1</dim>
					<dim>32</dim>
					<dim>-1</dim>
					<dim>96</dim>
				</port>
				<port id="1" precision="FP32">
					<dim>-1</dim>
					<dim>32</dim>
					<dim>-1</dim>
					<dim>96</dim>
				</port>
			</input>
			<output>
				<port id="2" precision="FP32" names="hidden_states.13">
					<dim>-1</dim>
					<dim>32</dim>
					<dim>-1</dim>
					<dim>96</dim>
				</port>
			</output>
		</layer>
		<layer id="171" name="Constant_138628" type="Const" version="opset1">
			<data element_type="f32" shape="1, 1, 1, 1" offset="98621404" size="4" />
			<output>
				<port id="0" precision="FP32">
					<dim>1</dim>
					<dim>1</dim>
					<dim>1</dim>
					<dim>1</dim>
				</port>
			</output>
		</layer>
		<layer id="172" name="__module.model/aten::unsqueeze/Unsqueeze" type="Unsqueeze" version="opset1">
			<input>
				<port id="0" precision="I64">
					<dim>-1</dim>
					<dim>-1</dim>
				</port>
				<port id="1" precision="I64" />
			</input>
			<output>
				<port id="2" precision="I64" names="356">
					<dim>-1</dim>
					<dim>1</dim>
					<dim>-1</dim>
				</port>
			</output>
		</layer>
		<layer id="173" name="243" type="Const" version="opset1">
			<data element_type="i64" shape="" offset="112795648" size="8" />
			<output>
				<port id="0" precision="I64" names="243" />
			</output>
		</layer>
		<layer id="174" name="__module.model/aten::unsqueeze/Unsqueeze_1" type="Unsqueeze" version="opset1">
			<input>
				<port id="0" precision="I64">
					<dim>-1</dim>
					<dim>1</dim>
					<dim>-1</dim>
				</port>
				<port id="1" precision="I64" />
			</input>
			<output>
				<port id="2" precision="I64" names="357,358">
					<dim>-1</dim>
					<dim>1</dim>
					<dim>1</dim>
					<dim>-1</dim>
				</port>
			</output>
		</layer>
		<layer id="175" name="Constant_113239" type="Const" version="opset1">
			<data element_type="i64" shape="1" offset="112795640" size="8" />
			<output>
				<port id="0" precision="I64">
					<dim>1</dim>
				</port>
			</output>
		</layer>
		<layer id="176" name="Constant_145022" type="Const" version="opset1">
			<data element_type="i64" shape="" offset="112795640" size="8" />
			<output>
				<port id="0" precision="I64" />
			</output>
		</layer>
		<layer id="177" name="Constant_145023" type="Const" version="opset1">
			<data element_type="i64" shape="" offset="4" size="8" />
			<output>
				<port id="0" precision="I64" />
			</output>
		</layer>
		<layer id="178" name="Gather_145024" type="Gather" version="opset8">
			<data batch_dims="0" />
			<input>
				<port id="0" precision="I64">
					<dim>2</dim>
				</port>
				<port id="1" precision="I64" />
				<port id="2" precision="I64" />
			</input>
			<output>
				<port id="3" precision="I64" names="311,326,329" />
			</output>
		</layer>
		<layer id="179" name="Constant_145025" type="Const" version="opset1">
			<data element_type="i64" shape="1" offset="112795640" size="8" />
			<output>
				<port id="0" precision="I64">
					<dim>1</dim>
				</port>
			</output>
		</layer>
		<layer id="180" name="Reshape_145026" type="Reshape" version="opset1">
			<data special_zero="false" />
			<input>
				<port id="0" precision="I64" />
				<port id="1" precision="I64">
					<dim>1</dim>
				</port>
			</input>
			<output>
				<port id="2" precision="I64">
					<dim>1</dim>
				</port>
			</output>
		</layer>
		<layer id="181" name="ShapeOf_145047" type="ShapeOf" version="opset3">
			<data output_type="i64" />
			<input>
				<port id="0" precision="I64">
					<dim>-1</dim>
					<dim>-1</dim>
				</port>
			</input>
			<output>
				<port id="1" precision="I64">
					<dim>2</dim>
				</port>
			</output>
		</layer>
		<layer id="182" name="Constant_145048" type="Const" version="opset1">
			<data element_type="i64" shape="1" offset="112795640" size="8" />
			<output>
				<port id="0" precision="I64">
					<dim>1</dim>
				</port>
			</output>
		</layer>
		<layer id="183" name="Constant_145049" type="Const" version="opset1">
			<data element_type="i64" shape="" offset="4" size="8" />
			<output>
				<port id="0" precision="I64" />
			</output>
		</layer>
		<layer id="184" name="Gather_145050" type="Gather" version="opset8">
			<data batch_dims="0" />
			<input>
				<port id="0" precision="I64">
					<dim>2</dim>
				</port>
				<port id="1" precision="I64">
					<dim>1</dim>
				</port>
				<port id="2" precision="I64" />
			</input>
			<output>
				<port id="3" precision="I64" names="354">
					<dim>1</dim>
				</port>
			</output>
		</layer>
		<layer id="185" name="__module.model/prim::ListConstruct_1" type="Concat" version="opset1">
			<data axis="0" />
			<input>
				<port id="0" precision="I64">
					<dim>1</dim>
				</port>
				<port id="1" precision="I64">
					<dim>1</dim>
				</port>
				<port id="2" precision="I64">
					<dim>1</dim>
				</port>
				<port id="3" precision="I64">
					<dim>1</dim>
				</port>
			</input>
			<output>
				<port id="4" precision="I64">
					<dim>4</dim>
				</port>
			</output>
		</layer>
		<layer id="186" name="__module.model/aten::expand/Broadcast" type="Broadcast" version="opset3">
			<data mode="bidirectional" />
			<input>
				<port id="0" precision="I64">
					<dim>-1</dim>
					<dim>1</dim>
					<dim>1</dim>
					<dim>-1</dim>
				</port>
				<port id="1" precision="I64">
					<dim>4</dim>
				</port>
			</input>
			<output>
				<port id="2" precision="I64" names="360">
					<dim>-1</dim>
					<dim>1</dim>
					<dim>-1</dim>
					<dim>-1</dim>
				</port>
			</output>
		</layer>
		<layer id="187" name="__module.model/aten::to/Convert_2" type="Convert" version="opset1">
			<data destination_type="f32" />
			<input>
				<port id="0" precision="I64">
					<dim>-1</dim>
					<dim>1</dim>
					<dim>-1</dim>
					<dim>-1</dim>
				</port>
			</input>
			<output>
				<port id="1" precision="FP32" names="361,expanded_mask">
					<dim>-1</dim>
					<dim>1</dim>
					<dim>-1</dim>
					<dim>-1</dim>
				</port>
			</output>
		</layer>
		<layer id="188" name="__module.model/aten::sub/Subtract" type="Subtract" version="opset1">
			<data auto_broadcast="numpy" />
			<input>
				<port id="0" precision="FP32">
					<dim>1</dim>
					<dim>1</dim>
					<dim>1</dim>
					<dim>1</dim>
				</port>
				<port id="1" precision="FP32">
					<dim>-1</dim>
					<dim>1</dim>
					<dim>-1</dim>
					<dim>-1</dim>
				</port>
			</input>
			<output>
				<port id="2" precision="FP32" names="364,inverted_mask">
					<dim>-1</dim>
					<dim>1</dim>
					<dim>-1</dim>
					<dim>-1</dim>
				</port>
			</output>
		</layer>
		<layer id="189" name="__module.model/aten::to/Convert_3" type="Convert" version="opset1">
			<data destination_type="boolean" />
			<input>
				<port id="0" precision="FP32">
					<dim>-1</dim>
					<dim>1</dim>
					<dim>-1</dim>
					<dim>-1</dim>
				</port>
			</input>
			<output>
				<port id="1" precision="BOOL" names="365">
					<dim>-1</dim>
					<dim>1</dim>
					<dim>-1</dim>
					<dim>-1</dim>
				</port>
			</output>
		</layer>
		<layer id="190" name="__module.model/aten::masked_fill/ConvertLike" type="Const" version="opset1">
			<data element_type="f32" shape="" offset="112795956" size="4" />
			<output>
				<port id="0" precision="FP32" />
			</output>
		</layer>
		<layer id="191" name="__module.model/aten::masked_fill/Select" type="Select" version="opset1">
			<data auto_broadcast="numpy" />
			<input>
				<port id="0" precision="BOOL">
					<dim>-1</dim>
					<dim>1</dim>
					<dim>-1</dim>
					<dim>-1</dim>
				</port>
				<port id="1" precision="FP32" />
				<port id="2" precision="FP32">
					<dim>-1</dim>
					<dim>1</dim>
					<dim>-1</dim>
					<dim>-1</dim>
				</port>
			</input>
			<output>
				<port id="3" precision="FP32" names="366,367,expanded_attn_mask">
					<dim>-1</dim>
					<dim>1</dim>
					<dim>-1</dim>
					<dim>-1</dim>
				</port>
			</output>
		</layer>
		<layer id="192" name="__module.model/aten::to/Convert_5" type="Convert" version="opset1">
			<data destination_type="boolean" />
			<input>
				<port id="0" precision="FP32">
					<dim>-1</dim>
					<dim>1</dim>
					<dim>-1</dim>
					<dim>-1</dim>
				</port>
			</input>
			<output>
				<port id="1" precision="BOOL" names="368">
					<dim>-1</dim>
					<dim>1</dim>
					<dim>-1</dim>
					<dim>-1</dim>
				</port>
			</output>
		</layer>
		<layer id="193" name="__module.model/aten::tril/Constant" type="Const" version="opset1">
			<data element_type="i32" shape="" offset="0" size="4" />
			<output>
				<port id="0" precision="I32" />
			</output>
		</layer>
		<layer id="194" name="__module.model/aten::zeros/Convert" type="Const" version="opset1">
			<data element_type="f32" shape="" offset="0" size="4" />
			<output>
				<port id="0" precision="FP32" />
			</output>
		</layer>
		<layer id="195" name="ShapeOf_145059" type="ShapeOf" version="opset3">
			<data output_type="i64" />
			<input>
				<port id="0" precision="FP32">
					<dim>-1</dim>
					<dim>32</dim>
					<dim>-1</dim>
					<dim>96</dim>
				</port>
			</input>
			<output>
				<port id="1" precision="I64">
					<dim>4</dim>
				</port>
			</output>
		</layer>
		<layer id="196" name="Constant_145060" type="Const" version="opset1">
			<data element_type="i64" shape="" offset="112795648" size="8" />
			<output>
				<port id="0" precision="I64" />
			</output>
		</layer>
		<layer id="197" name="Constant_145061" type="Const" version="opset1">
			<data element_type="i64" shape="" offset="4" size="8" />
			<output>
				<port id="0" precision="I64" />
			</output>
		</layer>
		<layer id="198" name="Gather_145062" type="Gather" version="opset8">
			<data batch_dims="0" />
			<input>
				<port id="0" precision="I64">
					<dim>4</dim>
				</port>
				<port id="1" precision="I64" />
				<port id="2" precision="I64" />
			</input>
			<output>
				<port id="3" precision="I64" names="313" />
			</output>
		</layer>
		<layer id="199" name="__module.model/aten::add/Add" type="Add" version="opset1">
			<data auto_broadcast="numpy" />
			<input>
				<port id="0" precision="I64" />
				<port id="1" precision="I64" />
			</input>
			<output>
				<port id="2" precision="I64" names="320,key_value_length" />
			</output>
		</layer>
		<layer id="200" name="__module.model/aten::sub/Subtract_1" type="Subtract" version="opset1">
			<data auto_broadcast="numpy" />
			<input>
				<port id="0" precision="I64" />
				<port id="1" precision="I64" />
			</input>
			<output>
				<port id="2" precision="I64" names="322,323,past_key_values_length" />
			</output>
		</layer>
		<layer id="201" name="Constant_233" type="Const" version="opset1">
			<data element_type="i32" shape="" offset="0" size="4" />
			<output>
				<port id="0" precision="I32" />
			</output>
		</layer>
		<layer id="202" name="Unsqueeze_234" type="Unsqueeze" version="opset1">
			<input>
				<port id="0" precision="I64" />
				<port id="1" precision="I32" />
			</input>
			<output>
				<port id="2" precision="I64">
					<dim>1</dim>
				</port>
			</output>
		</layer>
		<layer id="203" name="__module.model/prim::ListConstruct_2" type="Concat" version="opset1">
			<data axis="0" />
			<input>
				<port id="0" precision="I64">
					<dim>1</dim>
				</port>
				<port id="1" precision="I64">
					<dim>1</dim>
				</port>
			</input>
			<output>
				<port id="2" precision="I64">
					<dim>2</dim>
				</port>
			</output>
		</layer>
		<layer id="204" name="__module.model/aten::zeros/Broadcast" type="Broadcast" version="opset3">
			<data mode="numpy" />
			<input>
				<port id="0" precision="FP32" />
				<port id="1" precision="I64">
					<dim>2</dim>
				</port>
			</input>
			<output>
				<port id="2" precision="FP32" names="336">
					<dim>-1</dim>
					<dim>-1</dim>
				</port>
			</output>
		</layer>
		<layer id="205" name="ShapeOf_145077" type="ShapeOf" version="opset3">
			<data output_type="i32" />
			<input>
				<port id="0" precision="FP32">
					<dim>-1</dim>
					<dim>-1</dim>
				</port>
			</input>
			<output>
				<port id="1" precision="I32">
					<dim>2</dim>
				</port>
			</output>
		</layer>
		<layer id="206" name="Constant_145078" type="Const" version="opset1">
			<data element_type="i64" shape="" offset="112795640" size="8" />
			<output>
				<port id="0" precision="I64" />
			</output>
		</layer>
		<layer id="207" name="Constant_145079" type="Const" version="opset1">
			<data element_type="i64" shape="" offset="4" size="8" />
			<output>
				<port id="0" precision="I64" />
			</output>
		</layer>
		<layer id="208" name="Gather_145080" type="Gather" version="opset8">
			<data batch_dims="0" />
			<input>
				<port id="0" precision="I32">
					<dim>2</dim>
				</port>
				<port id="1" precision="I64" />
				<port id="2" precision="I64" />
			</input>
			<output>
				<port id="3" precision="I32" />
			</output>
		</layer>
		<layer id="209" name="Convert_145081" type="Convert" version="opset1">
			<data destination_type="i32" />
			<input>
				<port id="0" precision="I64" />
			</input>
			<output>
				<port id="1" precision="I32" />
			</output>
		</layer>
		<layer id="210" name="Add_145082" type="Add" version="opset1">
			<data auto_broadcast="numpy" />
			<input>
				<port id="0" precision="I32" />
				<port id="1" precision="I32" />
			</input>
			<output>
				<port id="2" precision="I32" />
			</output>
		</layer>
		<layer id="211" name="__module.model/aten::tril/Constant_2" type="Const" version="opset1">
			<data element_type="i32" shape="" offset="112795960" size="4" />
			<output>
				<port id="0" precision="I32" />
			</output>
		</layer>
		<layer id="212" name="__module.model/aten::tril/Range" type="Range" version="opset4">
			<data output_type="i32" />
			<input>
				<port id="0" precision="I32" />
				<port id="1" precision="I32" />
				<port id="2" precision="I32" />
			</input>
			<output>
				<port id="3" precision="I32">
					<dim>-1</dim>
				</port>
			</output>
		</layer>
		<layer id="213" name="__module.model/aten::tril/Unsqueeze" type="Unsqueeze" version="opset1">
			<input>
				<port id="0" precision="I32">
					<dim>-1</dim>
				</port>
				<port id="1" precision="I32" />
			</input>
			<output>
				<port id="2" precision="I32">
					<dim>1</dim>
					<dim>-1</dim>
				</port>
			</output>
		</layer>
		<layer id="214" name="Constant_137359" type="Const" version="opset1">
			<data element_type="i64" shape="" offset="112795964" size="8" />
			<output>
				<port id="0" precision="I64" />
			</output>
		</layer>
		<layer id="215" name="__module.model/aten::sub/Subtract_3" type="Add" version="opset1">
			<data auto_broadcast="numpy" />
			<input>
				<port id="0" precision="I64" />
				<port id="1" precision="I64" />
			</input>
			<output>
				<port id="2" precision="I64" names="340,341" />
			</output>
		</layer>
		<layer id="216" name="__module.model/aten::tril/Convert" type="Convert" version="opset1">
			<data destination_type="i32" />
			<input>
				<port id="0" precision="I64" />
			</input>
			<output>
				<port id="1" precision="I32" />
			</output>
		</layer>
		<layer id="217" name="__module.model/aten::tril/Add" type="Add" version="opset1">
			<data auto_broadcast="numpy" />
			<input>
				<port id="0" precision="I32" />
				<port id="1" precision="I32" />
			</input>
			<output>
				<port id="2" precision="I32" />
			</output>
		</layer>
		<layer id="218" name="__module.model/aten::tril/Range_1" type="Range" version="opset4">
			<data output_type="i32" />
			<input>
				<port id="0" precision="I32" />
				<port id="1" precision="I32" />
				<port id="2" precision="I32" />
			</input>
			<output>
				<port id="3" precision="I32">
					<dim>-1</dim>
				</port>
			</output>
		</layer>
		<layer id="219" name="__module.model/aten::tril/Unsqueeze_1" type="Unsqueeze" version="opset1">
			<input>
				<port id="0" precision="I32">
					<dim>-1</dim>
				</port>
				<port id="1" precision="I32" />
			</input>
			<output>
				<port id="2" precision="I32">
					<dim>-1</dim>
					<dim>1</dim>
				</port>
			</output>
		</layer>
		<layer id="220" name="__module.model/aten::tril/LessEqual" type="LessEqual" version="opset1">
			<data auto_broadcast="numpy" />
			<input>
				<port id="0" precision="I32">
					<dim>1</dim>
					<dim>-1</dim>
				</port>
				<port id="1" precision="I32">
					<dim>-1</dim>
					<dim>1</dim>
				</port>
			</input>
			<output>
				<port id="2" precision="BOOL">
					<dim>-1</dim>
					<dim>-1</dim>
				</port>
			</output>
		</layer>
		<layer id="221" name="__module.model/aten::ones_like/Convert" type="Const" version="opset1">
			<data element_type="boolean" shape="" offset="112795972" size="1" />
			<output>
				<port id="0" precision="BOOL" />
			</output>
		</layer>
		<layer id="222" name="__module.model/aten::arange/Constant" type="Const" version="opset1">
			<data element_type="i32" shape="" offset="0" size="4" />
			<output>
				<port id="0" precision="I32" />
			</output>
		</layer>
		<layer id="223" name="__module.model/aten::arange/Constant_1" type="Const" version="opset1">
			<data element_type="i32" shape="" offset="112795960" size="4" />
			<output>
				<port id="0" precision="I32" />
			</output>
		</layer>
		<layer id="224" name="__module.model/aten::arange/Range" type="Range" version="opset4">
			<data output_type="f32" />
			<input>
				<port id="0" precision="I32" />
				<port id="1" precision="I64" />
				<port id="2" precision="I32" />
			</input>
			<output>
				<port id="3" precision="FP32">
					<dim>-1</dim>
				</port>
			</output>
		</layer>
		<layer id="225" name="__module.model/aten::arange/ConvertLike" type="Convert" version="opset1">
			<data destination_type="i64" />
			<input>
				<port id="0" precision="FP32">
					<dim>-1</dim>
				</port>
			</input>
			<output>
				<port id="1" precision="I64" names="327,mask_cond">
					<dim>-1</dim>
				</port>
			</output>
		</layer>
		<layer id="226" name="Constant_138629" type="Const" version="opset1">
			<data element_type="i64" shape="1" offset="112795640" size="8" />
			<output>
				<port id="0" precision="I64">
					<dim>1</dim>
				</port>
			</output>
		</layer>
		<layer id="227" name="__module.model/aten::add/Add_1" type="Add" version="opset1">
			<data auto_broadcast="numpy" />
			<input>
				<port id="0" precision="I64">
					<dim>-1</dim>
				</port>
				<port id="1" precision="I64">
					<dim>1</dim>
				</port>
			</input>
			<output>
				<port id="2" precision="I64" names="328">
					<dim>-1</dim>
				</port>
			</output>
		</layer>
		<layer id="228" name="Constant_147874" type="Const" version="opset1">
			<data element_type="i64" shape="2" offset="112795973" size="16" />
			<output>
				<port id="0" precision="I64">
					<dim>2</dim>
				</port>
			</output>
		</layer>
		<layer id="229" name="__module.model/aten::view/Reshape_1" type="Reshape" version="opset1">
			<data special_zero="true" />
			<input>
				<port id="0" precision="I64">
					<dim>-1</dim>
				</port>
				<port id="1" precision="I64">
					<dim>2</dim>
				</port>
			</input>
			<output>
				<port id="2" precision="I64" names="331">
					<dim>-1</dim>
					<dim>1</dim>
				</port>
			</output>
		</layer>
		<layer id="230" name="__module.model/aten::lt/Less" type="Less" version="opset1">
			<data auto_broadcast="numpy" />
			<input>
				<port id="0" precision="I64">
					<dim>-1</dim>
				</port>
				<port id="1" precision="I64">
					<dim>-1</dim>
					<dim>1</dim>
				</port>
			</input>
			<output>
				<port id="2" precision="BOOL" names="332">
					<dim>-1</dim>
					<dim>-1</dim>
				</port>
			</output>
		</layer>
		<layer id="231" name="__module.model/aten::masked_fill_/ConvertLike" type="Const" version="opset1">
			<data element_type="f32" shape="" offset="0" size="4" />
			<output>
				<port id="0" precision="FP32" />
			</output>
		</layer>
		<layer id="232" name="237" type="Const" version="opset1">
			<data element_type="f32" shape="" offset="112795956" size="4" />
			<output>
				<port id="0" precision="FP32" names="237" />
			</output>
		</layer>
		<layer id="233" name="Constant_124575" type="Const" version="opset1">
			<data element_type="i32" shape="1" offset="112795989" size="4" />
			<output>
				<port id="0" precision="I32">
					<dim>1</dim>
				</port>
			</output>
		</layer>
		<layer id="234" name="__module.model/prim::ListConstruct_3" type="Broadcast" version="opset3">
			<data mode="numpy" />
			<input>
				<port id="0" precision="I64">
					<dim>1</dim>
				</port>
				<port id="1" precision="I32">
					<dim>1</dim>
				</port>
			</input>
			<output>
				<port id="2" precision="I64">
					<dim>2</dim>
				</port>
			</output>
		</layer>
		<layer id="235" name="__module.model/aten::full/Broadcast" type="Broadcast" version="opset3">
			<data mode="numpy" />
			<input>
				<port id="0" precision="FP32" />
				<port id="1" precision="I64">
					<dim>2</dim>
				</port>
			</input>
			<output>
				<port id="2" precision="FP32" names="325_1">
					<dim>-1</dim>
					<dim>-1</dim>
				</port>
			</output>
		</layer>
		<layer id="236" name="__module.model/aten::masked_fill_/Select" type="Select" version="opset1">
			<data auto_broadcast="numpy" />
			<input>
				<port id="0" precision="BOOL">
					<dim>-1</dim>
					<dim>-1</dim>
				</port>
				<port id="1" precision="FP32" />
				<port id="2" precision="FP32">
					<dim>-1</dim>
					<dim>-1</dim>
				</port>
			</input>
			<output>
				<port id="3" precision="FP32" names="325,334,mask.1,mask.5">
					<dim>-1</dim>
					<dim>-1</dim>
				</port>
			</output>
		</layer>
		<layer id="237" name="__module.model/aten::cat/Concat" type="Concat" version="opset1">
			<data axis="-1" />
			<input>
				<port id="0" precision="FP32">
					<dim>-1</dim>
					<dim>-1</dim>
				</port>
				<port id="1" precision="FP32">
					<dim>-1</dim>
					<dim>-1</dim>
				</port>
			</input>
			<output>
				<port id="2" precision="FP32" names="338_1">
					<dim>-1</dim>
					<dim>-1</dim>
				</port>
			</output>
		</layer>
		<layer id="238" name="__module.model/aten::ones_like/ShapeOf" type="ShapeOf" version="opset3">
			<data output_type="i32" />
			<input>
				<port id="0" precision="FP32">
					<dim>-1</dim>
					<dim>-1</dim>
				</port>
			</input>
			<output>
				<port id="1" precision="I32">
					<dim>2</dim>
				</port>
			</output>
		</layer>
		<layer id="239" name="__module.model/aten::ones_like/Broadcast" type="Broadcast" version="opset3">
			<data mode="numpy" />
			<input>
				<port id="0" precision="BOOL" />
				<port id="1" precision="I32">
					<dim>2</dim>
				</port>
			</input>
			<output>
				<port id="2" precision="BOOL" names="342,input_tensor">
					<dim>-1</dim>
					<dim>-1</dim>
				</port>
			</output>
		</layer>
		<layer id="240" name="__module.model/aten::tril/ConvertLike" type="Const" version="opset1">
			<data element_type="boolean" shape="" offset="112795993" size="1" />
			<output>
				<port id="0" precision="BOOL" />
			</output>
		</layer>
		<layer id="241" name="__module.model/aten::tril/Select" type="Select" version="opset1">
			<data auto_broadcast="numpy" />
			<input>
				<port id="0" precision="BOOL">
					<dim>-1</dim>
					<dim>-1</dim>
				</port>
				<port id="1" precision="BOOL">
					<dim>-1</dim>
					<dim>-1</dim>
				</port>
				<port id="2" precision="BOOL" />
			</input>
			<output>
				<port id="3" precision="BOOL" names="343,context_mask">
					<dim>-1</dim>
					<dim>-1</dim>
				</port>
			</output>
		</layer>
		<layer id="242" name="__module.model/aten::masked_fill_/Select_1" type="Select" version="opset1">
			<data auto_broadcast="numpy" />
			<input>
				<port id="0" precision="BOOL">
					<dim>-1</dim>
					<dim>-1</dim>
				</port>
				<port id="1" precision="FP32" />
				<port id="2" precision="FP32">
					<dim>-1</dim>
					<dim>-1</dim>
				</port>
			</input>
			<output>
				<port id="3" precision="FP32" names="338,mask.7">
					<dim>-1</dim>
					<dim>-1</dim>
				</port>
			</output>
		</layer>
		<layer id="243" name="238" type="Const" version="opset1">
			<data element_type="i64" shape="" offset="4" size="8" />
			<output>
				<port id="0" precision="I64" names="238" />
			</output>
		</layer>
		<layer id="244" name="__module.model/aten::unsqueeze/Unsqueeze_2" type="Unsqueeze" version="opset1">
			<input>
				<port id="0" precision="FP32">
					<dim>-1</dim>
					<dim>-1</dim>
				</port>
				<port id="1" precision="I64" />
			</input>
			<output>
				<port id="2" precision="FP32" names="345">
					<dim>1</dim>
					<dim>-1</dim>
					<dim>-1</dim>
				</port>
			</output>
		</layer>
		<layer id="245" name="__module.model/aten::unsqueeze/Unsqueeze_3" type="Unsqueeze" version="opset1">
			<input>
				<port id="0" precision="FP32">
					<dim>1</dim>
					<dim>-1</dim>
					<dim>-1</dim>
				</port>
				<port id="1" precision="I64" />
			</input>
			<output>
				<port id="2" precision="FP32" names="346,347,348">
					<dim>1</dim>
					<dim>1</dim>
					<dim>-1</dim>
					<dim>-1</dim>
				</port>
			</output>
		</layer>
		<layer id="246" name="Constant_113253" type="Const" version="opset1">
			<data element_type="i64" shape="1" offset="112795640" size="8" />
			<output>
				<port id="0" precision="I64">
					<dim>1</dim>
				</port>
			</output>
		</layer>
		<layer id="247" name="__module.model/aten::add/Add_2" type="Add" version="opset1">
			<data auto_broadcast="numpy" />
			<input>
				<port id="0" precision="I64">
					<dim>1</dim>
				</port>
				<port id="1" precision="I64">
					<dim>1</dim>
				</port>
			</input>
			<output>
				<port id="2" precision="I64" names="349,350">
					<dim>1</dim>
				</port>
			</output>
		</layer>
		<layer id="248" name="__module.model/prim::ListConstruct_5" type="Concat" version="opset1">
			<data axis="0" />
			<input>
				<port id="0" precision="I64">
					<dim>1</dim>
				</port>
				<port id="1" precision="I64">
					<dim>1</dim>
				</port>
				<port id="2" precision="I64">
					<dim>1</dim>
				</port>
				<port id="3" precision="I64">
					<dim>1</dim>
				</port>
			</input>
			<output>
				<port id="4" precision="I64">
					<dim>4</dim>
				</port>
			</output>
		</layer>
		<layer id="249" name="__module.model/aten::expand/Broadcast_1" type="Broadcast" version="opset3">
			<data mode="bidirectional" />
			<input>
				<port id="0" precision="FP32">
					<dim>1</dim>
					<dim>1</dim>
					<dim>-1</dim>
					<dim>-1</dim>
				</port>
				<port id="1" precision="I64">
					<dim>4</dim>
				</port>
			</input>
			<output>
				<port id="2" precision="FP32" names="352,causal_4d_mask">
					<dim>-1</dim>
					<dim>1</dim>
					<dim>-1</dim>
					<dim>-1</dim>
				</port>
			</output>
		</layer>
		<layer id="250" name="__module.model/aten::masked_fill/Select_1" type="Select" version="opset1">
			<data auto_broadcast="numpy" />
			<input>
				<port id="0" precision="BOOL">
					<dim>-1</dim>
					<dim>1</dim>
					<dim>-1</dim>
					<dim>-1</dim>
				</port>
				<port id="1" precision="FP32" />
				<port id="2" precision="FP32">
					<dim>-1</dim>
					<dim>1</dim>
					<dim>-1</dim>
					<dim>-1</dim>
				</port>
			</input>
			<output>
				<port id="3" precision="FP32" names="1151,1152,1153,1316,1317,1318,1481,1482,1483,1646,1647,1648,1811,1812,1813,1976,1977,1978,2141,2142,2143,2306,2307,2308,2471,2472,2473,2636,2637,2638,2801,2802,2803,2966,2967,2968,3131,3132,3133,3296,3297,3298,3461,3462,3463,3626,3627,3628,369,3791,3792,3793,3956,3957,3958,4121,4122,4123,4286,4287,4288,4451,4452,4453,4616,4617,4618,4781,4782,4783,491,492,493,4946,4947,4948,5111,5112,5113,5276,5277,5278,5441,5442,5443,5606,5607,5608,656,657,658,821,822,823,986,987,988,attention_mask_1">
					<dim>-1</dim>
					<dim>1</dim>
					<dim>-1</dim>
					<dim>-1</dim>
				</port>
			</output>
		</layer>
		<layer id="251" name="Constant_1278" type="Const" version="opset1">
			<data element_type="i64" shape="1" offset="4" size="8" />
			<output>
				<port id="0" precision="I64">
					<dim>1</dim>
				</port>
			</output>
		</layer>
		<layer id="252" name="Constant_145162" type="Const" version="opset1">
			<data element_type="i64" shape="1" offset="112795640" size="8" />
			<output>
				<port id="0" precision="I64">
					<dim>1</dim>
				</port>
			</output>
		</layer>
		<layer id="253" name="Reshape_145163" type="Reshape" version="opset1">
			<data special_zero="false" />
			<input>
				<port id="0" precision="I64" />
				<port id="1" precision="I64">
					<dim>1</dim>
				</port>
			</input>
			<output>
				<port id="2" precision="I64">
					<dim>1</dim>
				</port>
			</output>
		</layer>
		<layer id="254" name="Add_145166" type="Add" version="opset1">
			<data auto_broadcast="numpy" />
			<input>
				<port id="0" precision="I64">
					<dim>1</dim>
				</port>
				<port id="1" precision="I64">
					<dim>1</dim>
				</port>
			</input>
			<output>
				<port id="2" precision="I64" names="1150,1315,1480,1645,1810,1975,2140,2305,2470,2635,2800,2965,3130,3295,3460,3625,3790,3955,4120,4285,4450,4615,4780,490,4945,5110,5275,5440,5605,655,820,985">
					<dim>1</dim>
				</port>
			</output>
		</layer>
		<layer id="255" name="Constant_1281" type="Const" version="opset1">
			<data element_type="i64" shape="1" offset="112795640" size="8" />
			<output>
				<port id="0" precision="I64">
					<dim>1</dim>
				</port>
			</output>
		</layer>
		<layer id="256" name="Constant_1276" type="Const" version="opset1">
			<data element_type="i64" shape="1" offset="112795928" size="8" />
			<output>
				<port id="0" precision="I64">
					<dim>1</dim>
				</port>
			</output>
		</layer>
		<layer id="257" name="__module.model.layers.0.self_attn/aten::slice/Slice_14" type="Slice" version="opset8">
			<input>
				<port id="0" precision="FP32">
					<dim>-1</dim>
					<dim>1</dim>
					<dim>-1</dim>
					<dim>-1</dim>
				</port>
				<port id="1" precision="I64">
					<dim>1</dim>
				</port>
				<port id="2" precision="I64">
					<dim>1</dim>
				</port>
				<port id="3" precision="I64">
					<dim>1</dim>
				</port>
				<port id="4" precision="I64">
					<dim>1</dim>
				</port>
			</input>
			<output>
				<port id="5" precision="FP32" names="1154,1319,1484,1649,1814,1979,2144,2309,2474,2639,2804,2969,3134,3299,3464,3629,3794,3959,4124,4289,4454,4619,4784,494,4949,5114,5279,5444,5609,659,824,989,causal_mask,causal_mask.1,causal_mask.11,causal_mask.13,causal_mask.15,causal_mask.17,causal_mask.19,causal_mask.21,causal_mask.23,causal_mask.25,causal_mask.27,causal_mask.29,causal_mask.3,causal_mask.31,causal_mask.33,causal_mask.35,causal_mask.37,causal_mask.39,causal_mask.41,causal_mask.43,causal_mask.45,causal_mask.47,causal_mask.49,causal_mask.5,causal_mask.51,causal_mask.53,causal_mask.55,causal_mask.57,causal_mask.59,causal_mask.61,causal_mask.7,causal_mask.9">
					<dim>-1</dim>
					<dim>1</dim>
					<dim>-1</dim>
					<dim>-1</dim>
				</port>
			</output>
		</layer>
		<layer id="258" name="__module.model.layers.0.self_attn/aten::scaled_dot_product_attention/ScaledDotProductAttention" type="ScaledDotProductAttention" version="opset13">
			<data causal="false" />
			<input>
				<port id="0" precision="FP32">
					<dim>-1</dim>
					<dim>32</dim>
					<dim>-1</dim>
					<dim>96</dim>
				</port>
				<port id="1" precision="FP32">
					<dim>-1</dim>
					<dim>32</dim>
					<dim>-1</dim>
					<dim>96</dim>
				</port>
				<port id="2" precision="FP32">
					<dim>-1</dim>
					<dim>32</dim>
					<dim>-1</dim>
					<dim>96</dim>
				</port>
				<port id="3" precision="FP32">
					<dim>-1</dim>
					<dim>1</dim>
					<dim>-1</dim>
					<dim>-1</dim>
				</port>
			</input>
			<output>
				<port id="4" precision="FP32" names="495,attn_output.1">
					<dim>-1</dim>
					<dim>32</dim>
					<dim>-1</dim>
					<dim>96</dim>
				</port>
			</output>
		</layer>
		<layer id="259" name="__module.model.layers.0.self_attn/aten::transpose/Constant_3" type="Const" version="opset1">
			<data element_type="i32" shape="4" offset="112795688" size="16" />
			<output>
				<port id="0" precision="I32">
					<dim>4</dim>
				</port>
			</output>
		</layer>
		<layer id="260" name="__module.model.layers.0.self_attn/aten::transpose/Transpose_3" type="Transpose" version="opset1">
			<input>
				<port id="0" precision="FP32">
					<dim>-1</dim>
					<dim>32</dim>
					<dim>-1</dim>
					<dim>96</dim>
				</port>
				<port id="1" precision="I32">
					<dim>4</dim>
				</port>
			</input>
			<output>
				<port id="2" precision="FP32" names="496">
					<dim>-1</dim>
					<dim>-1</dim>
					<dim>32</dim>
					<dim>96</dim>
				</port>
			</output>
		</layer>
		<layer id="261" name="Constant_147875" type="Const" version="opset1">
			<data element_type="i64" shape="3" offset="112795994" size="24" />
			<output>
				<port id="0" precision="I64">
					<dim>3</dim>
				</port>
			</output>
		</layer>
		<layer id="262" name="__module.model.layers.0.self_attn/aten::view/Reshape_3" type="Reshape" version="opset1">
			<data special_zero="true" />
			<input>
				<port id="0" precision="FP32">
					<dim>-1</dim>
					<dim>-1</dim>
					<dim>32</dim>
					<dim>96</dim>
				</port>
				<port id="1" precision="I64">
					<dim>3</dim>
				</port>
			</input>
			<output>
				<port id="2" precision="FP32" names="499">
					<dim>-1</dim>
					<dim>-1</dim>
					<dim>3072</dim>
				</port>
			</output>
		</layer>
		<layer id="263" name="self.model.layers.0.self_attn.o_proj.weight" type="Const" version="opset1">
			<data element_type="i4" shape="3072, 3072" offset="112796018" size="4718592" />
			<output>
				<port id="0" precision="I4">
					<dim>3072</dim>
					<dim>3072</dim>
				</port>
			</output>
		</layer>
		<layer id="264" name="Convert_593875" type="Convert" version="opset1">
			<data destination_type="f16" />
			<input>
				<port id="0" precision="I4">
					<dim>3072</dim>
					<dim>3072</dim>
				</port>
			</input>
			<output>
				<port id="1" precision="FP16">
					<dim>3072</dim>
					<dim>3072</dim>
				</port>
			</output>
		</layer>
		<layer id="265" name="self.model.layers.0.self_attn.o_proj.weight/scale" type="Const" version="opset1">
			<data element_type="f16" shape="3072, 1" offset="117514610" size="6144" />
			<output>
				<port id="0" precision="FP16">
					<dim>3072</dim>
					<dim>1</dim>
				</port>
			</output>
		</layer>
		<layer id="266" name="self.model.layers.0.self_attn.o_proj.weight/fq_weights_1" type="Multiply" version="opset1">
			<data auto_broadcast="numpy" />
			<input>
				<port id="0" precision="FP16">
					<dim>3072</dim>
					<dim>3072</dim>
				</port>
				<port id="1" precision="FP16">
					<dim>3072</dim>
					<dim>1</dim>
				</port>
			</input>
			<output>
				<port id="2" precision="FP16">
					<dim>3072</dim>
					<dim>3072</dim>
				</port>
			</output>
		</layer>
		<layer id="267" name="__module.model.layers.0.self_attn.o_proj/ov_ext::linear/Convert" type="Convert" version="opset1">
			<data destination_type="f32" />
			<rt_info>
				<attribute name="decompression" version="0" />
			</rt_info>
			<input>
				<port id="0" precision="FP16">
					<dim>3072</dim>
					<dim>3072</dim>
				</port>
			</input>
			<output>
				<port id="1" precision="FP32">
					<dim>3072</dim>
					<dim>3072</dim>
				</port>
			</output>
		</layer>
		<layer id="268" name="__module.model.layers.0.self_attn.o_proj/ov_ext::linear/MatMul" type="MatMul" version="opset1">
			<data transpose_a="false" transpose_b="true" />
			<input>
				<port id="0" precision="FP32">
					<dim>-1</dim>
					<dim>-1</dim>
					<dim>3072</dim>
				</port>
				<port id="1" precision="FP32">
					<dim>3072</dim>
					<dim>3072</dim>
				</port>
			</input>
			<output>
				<port id="2" precision="FP32" names="501,503,input.1">
					<dim>-1</dim>
					<dim>-1</dim>
					<dim>3072</dim>
				</port>
			</output>
		</layer>
		<layer id="269" name="__module.model.layers.0/aten::add/Add" type="Add" version="opset1">
			<data auto_broadcast="numpy" />
			<input>
				<port id="0" precision="FP32">
					<dim>-1</dim>
					<dim>-1</dim>
					<dim>3072</dim>
				</port>
				<port id="1" precision="FP32">
					<dim>-1</dim>
					<dim>-1</dim>
					<dim>3072</dim>
				</port>
			</input>
			<output>
				<port id="2" precision="FP32" names="507,509,520,hidden_states.15,hidden_states.17">
					<dim>-1</dim>
					<dim>-1</dim>
					<dim>3072</dim>
				</port>
			</output>
		</layer>
		<layer id="270" name="Constant_138633" type="Const" version="opset1">
			<data element_type="f32" shape="1, 1, 3072" offset="117520754" size="12288" />
			<output>
				<port id="0" precision="FP32">
					<dim>1</dim>
					<dim>1</dim>
					<dim>3072</dim>
				</port>
			</output>
		</layer>
		<layer id="271" name="Constant_138632" type="Const" version="opset1">
			<data element_type="f32" shape="1, 1, 1" offset="98621404" size="4" />
			<output>
				<port id="0" precision="FP32">
					<dim>1</dim>
					<dim>1</dim>
					<dim>1</dim>
				</port>
			</output>
		</layer>
		<layer id="272" name="Constant_138630" type="Const" version="opset1">
			<data element_type="f32" shape="1, 1, 1" offset="98621408" size="4" />
			<output>
				<port id="0" precision="FP32">
					<dim>1</dim>
					<dim>1</dim>
					<dim>1</dim>
				</port>
			</output>
		</layer>
		<layer id="273" name="__module.model.layers.0.post_attention_layernorm/aten::pow/Power" type="Power" version="opset1">
			<data auto_broadcast="numpy" />
			<input>
				<port id="0" precision="FP32">
					<dim>-1</dim>
					<dim>-1</dim>
					<dim>3072</dim>
				</port>
				<port id="1" precision="FP32">
					<dim>1</dim>
					<dim>1</dim>
					<dim>1</dim>
				</port>
			</input>
			<output>
				<port id="2" precision="FP32" names="510">
					<dim>-1</dim>
					<dim>-1</dim>
					<dim>3072</dim>
				</port>
			</output>
		</layer>
		<layer id="274" name="Constant_1350" type="Const" version="opset1">
			<data element_type="i64" shape="1" offset="98621412" size="8" />
			<output>
				<port id="0" precision="I64" names="511">
					<dim>1</dim>
				</port>
			</output>
		</layer>
		<layer id="275" name="__module.model.layers.0.post_attention_layernorm/aten::mean/ReduceMean" type="ReduceMean" version="opset1">
			<data keep_dims="true" />
			<input>
				<port id="0" precision="FP32">
					<dim>-1</dim>
					<dim>-1</dim>
					<dim>3072</dim>
				</port>
				<port id="1" precision="I64">
					<dim>1</dim>
				</port>
			</input>
			<output>
				<port id="2" precision="FP32" names="512,variance.3">
					<dim>-1</dim>
					<dim>-1</dim>
					<dim>1</dim>
				</port>
			</output>
		</layer>
		<layer id="276" name="Constant_138631" type="Const" version="opset1">
			<data element_type="f32" shape="1, 1, 1" offset="98621420" size="4" />
			<output>
				<port id="0" precision="FP32">
					<dim>1</dim>
					<dim>1</dim>
					<dim>1</dim>
				</port>
			</output>
		</layer>
		<layer id="277" name="__module.model.layers.0.post_attention_layernorm/aten::add/Add" type="Add" version="opset1">
			<data auto_broadcast="numpy" />
			<input>
				<port id="0" precision="FP32">
					<dim>-1</dim>
					<dim>-1</dim>
					<dim>1</dim>
				</port>
				<port id="1" precision="FP32">
					<dim>1</dim>
					<dim>1</dim>
					<dim>1</dim>
				</port>
			</input>
			<output>
				<port id="2" precision="FP32" names="513">
					<dim>-1</dim>
					<dim>-1</dim>
					<dim>1</dim>
				</port>
			</output>
		</layer>
		<layer id="278" name="__module.model.layers.0.post_attention_layernorm/aten::rsqrt/Sqrt" type="Sqrt" version="opset1">
			<input>
				<port id="0" precision="FP32">
					<dim>-1</dim>
					<dim>-1</dim>
					<dim>1</dim>
				</port>
			</input>
			<output>
				<port id="1" precision="FP32">
					<dim>-1</dim>
					<dim>-1</dim>
					<dim>1</dim>
				</port>
			</output>
		</layer>
		<layer id="279" name="__module.model.layers.0.post_attention_layernorm/aten::rsqrt/Divide" type="Divide" version="opset1">
			<data auto_broadcast="numpy" m_pythondiv="true" />
			<input>
				<port id="0" precision="FP32">
					<dim>1</dim>
					<dim>1</dim>
					<dim>1</dim>
				</port>
				<port id="1" precision="FP32">
					<dim>-1</dim>
					<dim>-1</dim>
					<dim>1</dim>
				</port>
			</input>
			<output>
				<port id="2" precision="FP32" names="514">
					<dim>-1</dim>
					<dim>-1</dim>
					<dim>1</dim>
				</port>
			</output>
		</layer>
		<layer id="280" name="__module.model.layers.0.post_attention_layernorm/aten::mul/Multiply" type="Multiply" version="opset1">
			<data auto_broadcast="numpy" />
			<input>
				<port id="0" precision="FP32">
					<dim>-1</dim>
					<dim>-1</dim>
					<dim>3072</dim>
				</port>
				<port id="1" precision="FP32">
					<dim>-1</dim>
					<dim>-1</dim>
					<dim>1</dim>
				</port>
			</input>
			<output>
				<port id="2" precision="FP32" names="515,516,hidden_states.19,hidden_states.21">
					<dim>-1</dim>
					<dim>-1</dim>
					<dim>3072</dim>
				</port>
			</output>
		</layer>
		<layer id="281" name="__module.model.layers.0.post_attention_layernorm/aten::mul/Multiply_1" type="Multiply" version="opset1">
			<data auto_broadcast="numpy" />
			<input>
				<port id="0" precision="FP32">
					<dim>1</dim>
					<dim>1</dim>
					<dim>3072</dim>
				</port>
				<port id="1" precision="FP32">
					<dim>-1</dim>
					<dim>-1</dim>
					<dim>3072</dim>
				</port>
			</input>
			<output>
				<port id="2" precision="FP32" names="517,519">
					<dim>-1</dim>
					<dim>-1</dim>
					<dim>3072</dim>
				</port>
			</output>
		</layer>
		<layer id="282" name="self.model.layers.0.mlp.gate_up_proj.weight" type="Const" version="opset1">
			<data element_type="i4" shape="16384, 3072" offset="117533042" size="25165824" />
			<output>
				<port id="0" precision="I4">
					<dim>16384</dim>
					<dim>3072</dim>
				</port>
			</output>
		</layer>
		<layer id="283" name="Convert_185107" type="Convert" version="opset1">
			<data destination_type="f16" />
			<input>
				<port id="0" precision="I4">
					<dim>16384</dim>
					<dim>3072</dim>
				</port>
			</input>
			<output>
				<port id="1" precision="FP16">
					<dim>16384</dim>
					<dim>3072</dim>
				</port>
			</output>
		</layer>
		<layer id="284" name="self.model.layers.0.mlp.gate_up_proj.weight/scale" type="Const" version="opset1">
			<data element_type="f16" shape="16384, 1" offset="142698866" size="32768" />
			<output>
				<port id="0" precision="FP16">
					<dim>16384</dim>
					<dim>1</dim>
				</port>
			</output>
		</layer>
		<layer id="285" name="self.model.layers.0.mlp.gate_up_proj.weight/fq_weights_1" type="Multiply" version="opset1">
			<data auto_broadcast="numpy" />
			<input>
				<port id="0" precision="FP16">
					<dim>16384</dim>
					<dim>3072</dim>
				</port>
				<port id="1" precision="FP16">
					<dim>16384</dim>
					<dim>1</dim>
				</port>
			</input>
			<output>
				<port id="2" precision="FP16">
					<dim>16384</dim>
					<dim>3072</dim>
				</port>
			</output>
		</layer>
		<layer id="286" name="__module.model.layers.0.mlp.gate_up_proj/ov_ext::linear/Convert" type="Convert" version="opset1">
			<data destination_type="f32" />
			<rt_info>
				<attribute name="decompression" version="0" />
			</rt_info>
			<input>
				<port id="0" precision="FP16">
					<dim>16384</dim>
					<dim>3072</dim>
				</port>
			</input>
			<output>
				<port id="1" precision="FP32">
					<dim>16384</dim>
					<dim>3072</dim>
				</port>
			</output>
		</layer>
		<layer id="287" name="__module.model.layers.0.mlp.gate_up_proj/ov_ext::linear/MatMul" type="MatMul" version="opset1">
			<data transpose_a="false" transpose_b="true" />
			<input>
				<port id="0" precision="FP32">
					<dim>-1</dim>
					<dim>-1</dim>
					<dim>3072</dim>
				</port>
				<port id="1" precision="FP32">
					<dim>16384</dim>
					<dim>3072</dim>
				</port>
			</input>
			<output>
				<port id="2" precision="FP32" names="524,up_states.1">
					<dim>-1</dim>
					<dim>-1</dim>
					<dim>16384</dim>
				</port>
			</output>
		</layer>
		<layer id="288" name="242" type="Const" version="opset1">
			<data element_type="i64" shape="" offset="98621412" size="8" />
			<output>
				<port id="0" precision="I64" names="242" />
			</output>
		</layer>
		<layer id="289" name="__module.model.layers.0.mlp/prim::ListUnpack/ShapeOf" type="ShapeOf" version="opset3">
			<data output_type="i32" />
			<input>
				<port id="0" precision="FP32">
					<dim>-1</dim>
					<dim>-1</dim>
					<dim>16384</dim>
				</port>
			</input>
			<output>
				<port id="1" precision="I32">
					<dim>3</dim>
				</port>
			</output>
		</layer>
		<layer id="290" name="Constant_40479" type="Const" version="opset1">
			<data element_type="i32" shape="1" offset="0" size="4" />
			<output>
				<port id="0" precision="I32">
					<dim>1</dim>
				</port>
			</output>
		</layer>
		<layer id="291" name="__module.model.layers.0.mlp/prim::ListUnpack/Gather" type="Gather" version="opset8">
			<data batch_dims="0" />
			<input>
				<port id="0" precision="I32">
					<dim>3</dim>
				</port>
				<port id="1" precision="I64" />
				<port id="2" precision="I32">
					<dim>1</dim>
				</port>
			</input>
			<output>
				<port id="3" precision="I32" />
			</output>
		</layer>
		<layer id="292" name="__module.model.layers.0.mlp/prim::ListUnpack/Convert" type="Const" version="opset1">
			<data element_type="i32" shape="" offset="112795989" size="4" />
			<output>
				<port id="0" precision="I32" />
			</output>
		</layer>
		<layer id="293" name="__module.model.layers.0.mlp/prim::ListUnpack/Divide" type="Divide" version="opset1">
			<data auto_broadcast="numpy" m_pythondiv="true" />
			<input>
				<port id="0" precision="I32" />
				<port id="1" precision="I32" />
			</input>
			<output>
				<port id="2" precision="I32" />
			</output>
		</layer>
		<layer id="294" name="__module.model.layers.0.mlp/prim::ListUnpack/Mod" type="Mod" version="opset1">
			<data auto_broadcast="numpy" />
			<input>
				<port id="0" precision="I32" />
				<port id="1" precision="I32" />
			</input>
			<output>
				<port id="2" precision="I32" />
			</output>
		</layer>
		<layer id="295" name="__module.model.layers.0.mlp/prim::ListUnpack/Greater" type="Greater" version="opset1">
			<data auto_broadcast="numpy" />
			<input>
				<port id="0" precision="I32" />
				<port id="1" precision="I32">
					<dim>1</dim>
				</port>
			</input>
			<output>
				<port id="2" precision="BOOL">
					<dim>1</dim>
				</port>
			</output>
		</layer>
		<layer id="296" name="__module.model.layers.0.mlp/prim::ListUnpack/Convert_0" type="Convert" version="opset1">
			<data destination_type="i32" />
			<input>
				<port id="0" precision="BOOL">
					<dim>1</dim>
				</port>
			</input>
			<output>
				<port id="1" precision="I32">
					<dim>1</dim>
				</port>
			</output>
		</layer>
		<layer id="297" name="__module.model.layers.0.mlp/prim::ListUnpack/Add" type="Add" version="opset1">
			<data auto_broadcast="numpy" />
			<input>
				<port id="0" precision="I32" />
				<port id="1" precision="I32">
					<dim>1</dim>
				</port>
			</input>
			<output>
				<port id="2" precision="I32">
					<dim>1</dim>
				</port>
			</output>
		</layer>
		<layer id="298" name="Constant_40480" type="Const" version="opset1">
			<data element_type="i32" shape="1" offset="112795952" size="4" />
			<output>
				<port id="0" precision="I32">
					<dim>1</dim>
				</port>
			</output>
		</layer>
		<layer id="299" name="__module.model.layers.0.mlp/prim::ListUnpack/Concat" type="Concat" version="opset1">
			<data axis="0" />
			<input>
				<port id="0" precision="I32">
					<dim>1</dim>
				</port>
				<port id="1" precision="I32">
					<dim>1</dim>
				</port>
			</input>
			<output>
				<port id="2" precision="I32">
					<dim>2</dim>
				</port>
			</output>
		</layer>
		<layer id="300" name="__module.model.layers.0.mlp/prim::ListUnpack/VariadicSplit" type="VariadicSplit" version="opset1">
			<input>
				<port id="0" precision="FP32">
					<dim>-1</dim>
					<dim>-1</dim>
					<dim>16384</dim>
				</port>
				<port id="1" precision="I64" />
				<port id="2" precision="I32">
					<dim>2</dim>
				</port>
			</input>
			<output>
				<port id="3" precision="FP32" names="526,input.3">
					<dim>-1</dim>
					<dim>-1</dim>
					<dim>8192</dim>
				</port>
				<port id="4" precision="FP32" names="527,up_states.3">
					<dim>-1</dim>
					<dim>-1</dim>
					<dim>8192</dim>
				</port>
			</output>
		</layer>
		<layer id="301" name="__module.model.layers.0.mlp.activation_fn/aten::silu/Swish" type="Swish" version="opset4">
			<input>
				<port id="0" precision="FP32">
					<dim>-1</dim>
					<dim>-1</dim>
					<dim>8192</dim>
				</port>
			</input>
			<output>
				<port id="1" precision="FP32" names="528">
					<dim>-1</dim>
					<dim>-1</dim>
					<dim>8192</dim>
				</port>
			</output>
		</layer>
		<layer id="302" name="__module.model.layers.0.mlp/aten::mul/Multiply" type="Multiply" version="opset1">
			<data auto_broadcast="numpy" />
			<input>
				<port id="0" precision="FP32">
					<dim>-1</dim>
					<dim>-1</dim>
					<dim>8192</dim>
				</port>
				<port id="1" precision="FP32">
					<dim>-1</dim>
					<dim>-1</dim>
					<dim>8192</dim>
				</port>
			</input>
			<output>
				<port id="2" precision="FP32" names="529">
					<dim>-1</dim>
					<dim>-1</dim>
					<dim>8192</dim>
				</port>
			</output>
		</layer>
		<layer id="303" name="self.model.layers.0.mlp.down_proj.weight" type="Const" version="opset1">
			<data element_type="i4" shape="3072, 8192" offset="142731634" size="12582912" />
			<output>
				<port id="0" precision="I4">
					<dim>3072</dim>
					<dim>8192</dim>
				</port>
			</output>
		</layer>
		<layer id="304" name="Convert_457619" type="Convert" version="opset1">
			<data destination_type="f16" />
			<input>
				<port id="0" precision="I4">
					<dim>3072</dim>
					<dim>8192</dim>
				</port>
			</input>
			<output>
				<port id="1" precision="FP16">
					<dim>3072</dim>
					<dim>8192</dim>
				</port>
			</output>
		</layer>
		<layer id="305" name="self.model.layers.0.mlp.down_proj.weight/scale" type="Const" version="opset1">
			<data element_type="f16" shape="3072, 1" offset="155314546" size="6144" />
			<output>
				<port id="0" precision="FP16">
					<dim>3072</dim>
					<dim>1</dim>
				</port>
			</output>
		</layer>
		<layer id="306" name="self.model.layers.0.mlp.down_proj.weight/fq_weights_1" type="Multiply" version="opset1">
			<data auto_broadcast="numpy" />
			<input>
				<port id="0" precision="FP16">
					<dim>3072</dim>
					<dim>8192</dim>
				</port>
				<port id="1" precision="FP16">
					<dim>3072</dim>
					<dim>1</dim>
				</port>
			</input>
			<output>
				<port id="2" precision="FP16">
					<dim>3072</dim>
					<dim>8192</dim>
				</port>
			</output>
		</layer>
		<layer id="307" name="__module.model.layers.0.mlp.down_proj/ov_ext::linear/Convert" type="Convert" version="opset1">
			<data destination_type="f32" />
			<rt_info>
				<attribute name="decompression" version="0" />
			</rt_info>
			<input>
				<port id="0" precision="FP16">
					<dim>3072</dim>
					<dim>8192</dim>
				</port>
			</input>
			<output>
				<port id="1" precision="FP32">
					<dim>3072</dim>
					<dim>8192</dim>
				</port>
			</output>
		</layer>
		<layer id="308" name="__module.model.layers.0.mlp.down_proj/ov_ext::linear/MatMul" type="MatMul" version="opset1">
			<data transpose_a="false" transpose_b="true" />
			<input>
				<port id="0" precision="FP32">
					<dim>-1</dim>
					<dim>-1</dim>
					<dim>8192</dim>
				</port>
				<port id="1" precision="FP32">
					<dim>3072</dim>
					<dim>8192</dim>
				</port>
			</input>
			<output>
				<port id="2" precision="FP32" names="531,input.5">
					<dim>-1</dim>
					<dim>-1</dim>
					<dim>3072</dim>
				</port>
			</output>
		</layer>
		<layer id="309" name="__module.model.layers.0/aten::add/Add_1" type="Add" version="opset1">
			<data auto_broadcast="numpy" />
			<input>
				<port id="0" precision="FP32">
					<dim>-1</dim>
					<dim>-1</dim>
					<dim>3072</dim>
				</port>
				<port id="1" precision="FP32">
					<dim>-1</dim>
					<dim>-1</dim>
					<dim>3072</dim>
				</port>
			</input>
			<output>
				<port id="2" precision="FP32" names="533,535,543,554,hidden_states.25,hidden_states.27">
					<dim>-1</dim>
					<dim>-1</dim>
					<dim>3072</dim>
				</port>
			</output>
		</layer>
		<layer id="310" name="Constant_138637" type="Const" version="opset1">
			<data element_type="f32" shape="1, 1, 3072" offset="155320690" size="12288" />
			<output>
				<port id="0" precision="FP32">
					<dim>1</dim>
					<dim>1</dim>
					<dim>3072</dim>
				</port>
			</output>
		</layer>
		<layer id="311" name="Constant_138636" type="Const" version="opset1">
			<data element_type="f32" shape="1, 1, 1" offset="98621404" size="4" />
			<output>
				<port id="0" precision="FP32">
					<dim>1</dim>
					<dim>1</dim>
					<dim>1</dim>
				</port>
			</output>
		</layer>
		<layer id="312" name="Constant_138634" type="Const" version="opset1">
			<data element_type="f32" shape="1, 1, 1" offset="98621408" size="4" />
			<output>
				<port id="0" precision="FP32">
					<dim>1</dim>
					<dim>1</dim>
					<dim>1</dim>
				</port>
			</output>
		</layer>
		<layer id="313" name="__module.model.layers.1.input_layernorm/aten::pow/Power" type="Power" version="opset1">
			<data auto_broadcast="numpy" />
			<input>
				<port id="0" precision="FP32">
					<dim>-1</dim>
					<dim>-1</dim>
					<dim>3072</dim>
				</port>
				<port id="1" precision="FP32">
					<dim>1</dim>
					<dim>1</dim>
					<dim>1</dim>
				</port>
			</input>
			<output>
				<port id="2" precision="FP32" names="544">
					<dim>-1</dim>
					<dim>-1</dim>
					<dim>3072</dim>
				</port>
			</output>
		</layer>
		<layer id="314" name="Constant_1421" type="Const" version="opset1">
			<data element_type="i64" shape="1" offset="98621412" size="8" />
			<output>
				<port id="0" precision="I64" names="545">
					<dim>1</dim>
				</port>
			</output>
		</layer>
		<layer id="315" name="__module.model.layers.1.input_layernorm/aten::mean/ReduceMean" type="ReduceMean" version="opset1">
			<data keep_dims="true" />
			<input>
				<port id="0" precision="FP32">
					<dim>-1</dim>
					<dim>-1</dim>
					<dim>3072</dim>
				</port>
				<port id="1" precision="I64">
					<dim>1</dim>
				</port>
			</input>
			<output>
				<port id="2" precision="FP32" names="546,variance.5">
					<dim>-1</dim>
					<dim>-1</dim>
					<dim>1</dim>
				</port>
			</output>
		</layer>
		<layer id="316" name="Constant_138635" type="Const" version="opset1">
			<data element_type="f32" shape="1, 1, 1" offset="98621420" size="4" />
			<output>
				<port id="0" precision="FP32">
					<dim>1</dim>
					<dim>1</dim>
					<dim>1</dim>
				</port>
			</output>
		</layer>
		<layer id="317" name="__module.model.layers.1.input_layernorm/aten::add/Add" type="Add" version="opset1">
			<data auto_broadcast="numpy" />
			<input>
				<port id="0" precision="FP32">
					<dim>-1</dim>
					<dim>-1</dim>
					<dim>1</dim>
				</port>
				<port id="1" precision="FP32">
					<dim>1</dim>
					<dim>1</dim>
					<dim>1</dim>
				</port>
			</input>
			<output>
				<port id="2" precision="FP32" names="547">
					<dim>-1</dim>
					<dim>-1</dim>
					<dim>1</dim>
				</port>
			</output>
		</layer>
		<layer id="318" name="__module.model.layers.1.input_layernorm/aten::rsqrt/Sqrt" type="Sqrt" version="opset1">
			<input>
				<port id="0" precision="FP32">
					<dim>-1</dim>
					<dim>-1</dim>
					<dim>1</dim>
				</port>
			</input>
			<output>
				<port id="1" precision="FP32">
					<dim>-1</dim>
					<dim>-1</dim>
					<dim>1</dim>
				</port>
			</output>
		</layer>
		<layer id="319" name="__module.model.layers.1.input_layernorm/aten::rsqrt/Divide" type="Divide" version="opset1">
			<data auto_broadcast="numpy" m_pythondiv="true" />
			<input>
				<port id="0" precision="FP32">
					<dim>1</dim>
					<dim>1</dim>
					<dim>1</dim>
				</port>
				<port id="1" precision="FP32">
					<dim>-1</dim>
					<dim>-1</dim>
					<dim>1</dim>
				</port>
			</input>
			<output>
				<port id="2" precision="FP32" names="548">
					<dim>-1</dim>
					<dim>-1</dim>
					<dim>1</dim>
				</port>
			</output>
		</layer>
		<layer id="320" name="__module.model.layers.1.input_layernorm/aten::mul/Multiply" type="Multiply" version="opset1">
			<data auto_broadcast="numpy" />
			<input>
				<port id="0" precision="FP32">
					<dim>-1</dim>
					<dim>-1</dim>
					<dim>3072</dim>
				</port>
				<port id="1" precision="FP32">
					<dim>-1</dim>
					<dim>-1</dim>
					<dim>1</dim>
				</port>
			</input>
			<output>
				<port id="2" precision="FP32" names="549,550,hidden_states.29,hidden_states.31">
					<dim>-1</dim>
					<dim>-1</dim>
					<dim>3072</dim>
				</port>
			</output>
		</layer>
		<layer id="321" name="__module.model.layers.1.input_layernorm/aten::mul/Multiply_1" type="Multiply" version="opset1">
			<data auto_broadcast="numpy" />
			<input>
				<port id="0" precision="FP32">
					<dim>1</dim>
					<dim>1</dim>
					<dim>3072</dim>
				</port>
				<port id="1" precision="FP32">
					<dim>-1</dim>
					<dim>-1</dim>
					<dim>3072</dim>
				</port>
			</input>
			<output>
				<port id="2" precision="FP32" names="551,553,hidden_states.33">
					<dim>-1</dim>
					<dim>-1</dim>
					<dim>3072</dim>
				</port>
			</output>
		</layer>
		<layer id="322" name="self.model.layers.1.self_attn.qkv_proj.weight" type="Const" version="opset1">
			<data element_type="i4" shape="9216, 3072" offset="155332978" size="14155776" />
			<output>
				<port id="0" precision="I4">
					<dim>9216</dim>
					<dim>3072</dim>
				</port>
			</output>
		</layer>
		<layer id="323" name="Convert_325621" type="Convert" version="opset1">
			<data destination_type="f16" />
			<input>
				<port id="0" precision="I4">
					<dim>9216</dim>
					<dim>3072</dim>
				</port>
			</input>
			<output>
				<port id="1" precision="FP16">
					<dim>9216</dim>
					<dim>3072</dim>
				</port>
			</output>
		</layer>
		<layer id="324" name="self.model.layers.1.self_attn.qkv_proj.weight/scale" type="Const" version="opset1">
			<data element_type="f16" shape="9216, 1" offset="169488754" size="18432" />
			<output>
				<port id="0" precision="FP16">
					<dim>9216</dim>
					<dim>1</dim>
				</port>
			</output>
		</layer>
		<layer id="325" name="self.model.layers.1.self_attn.qkv_proj.weight/fq_weights_1" type="Multiply" version="opset1">
			<data auto_broadcast="numpy" />
			<input>
				<port id="0" precision="FP16">
					<dim>9216</dim>
					<dim>3072</dim>
				</port>
				<port id="1" precision="FP16">
					<dim>9216</dim>
					<dim>1</dim>
				</port>
			</input>
			<output>
				<port id="2" precision="FP16">
					<dim>9216</dim>
					<dim>3072</dim>
				</port>
			</output>
		</layer>
		<layer id="326" name="__module.model.layers.1.self_attn.qkv_proj/ov_ext::linear/Convert" type="Convert" version="opset1">
			<data destination_type="f32" />
			<rt_info>
				<attribute name="decompression" version="0" />
			</rt_info>
			<input>
				<port id="0" precision="FP16">
					<dim>9216</dim>
					<dim>3072</dim>
				</port>
			</input>
			<output>
				<port id="1" precision="FP32">
					<dim>9216</dim>
					<dim>3072</dim>
				</port>
			</output>
		</layer>
		<layer id="327" name="__module.model.layers.1.self_attn.qkv_proj/ov_ext::linear/MatMul" type="MatMul" version="opset1">
			<data transpose_a="false" transpose_b="true" />
			<input>
				<port id="0" precision="FP32">
					<dim>-1</dim>
					<dim>-1</dim>
					<dim>3072</dim>
				</port>
				<port id="1" precision="FP32">
					<dim>9216</dim>
					<dim>3072</dim>
				</port>
			</input>
			<output>
				<port id="2" precision="FP32" names="560,qkv.3">
					<dim>-1</dim>
					<dim>-1</dim>
					<dim>9216</dim>
				</port>
			</output>
		</layer>
		<layer id="328" name="Constant_1466" type="Const" version="opset1">
			<data element_type="i64" shape="1" offset="4" size="8" />
			<output>
				<port id="0" precision="I64">
					<dim>1</dim>
				</port>
			</output>
		</layer>
		<layer id="329" name="Constant_1468" type="Const" version="opset1">
			<data element_type="i64" shape="1" offset="112795632" size="8" />
			<output>
				<port id="0" precision="I64">
					<dim>1</dim>
				</port>
			</output>
		</layer>
		<layer id="330" name="Constant_1470" type="Const" version="opset1">
			<data element_type="i64" shape="1" offset="112795640" size="8" />
			<output>
				<port id="0" precision="I64">
					<dim>1</dim>
				</port>
			</output>
		</layer>
		<layer id="331" name="Constant_1464" type="Const" version="opset1">
			<data element_type="i64" shape="1" offset="112795648" size="8" />
			<output>
				<port id="0" precision="I64">
					<dim>1</dim>
				</port>
			</output>
		</layer>
		<layer id="332" name="__module.model.layers.1.self_attn/aten::slice/Slice" type="Slice" version="opset8">
			<input>
				<port id="0" precision="FP32">
					<dim>-1</dim>
					<dim>-1</dim>
					<dim>9216</dim>
				</port>
				<port id="1" precision="I64">
					<dim>1</dim>
				</port>
				<port id="2" precision="I64">
					<dim>1</dim>
				</port>
				<port id="3" precision="I64">
					<dim>1</dim>
				</port>
				<port id="4" precision="I64">
					<dim>1</dim>
				</port>
			</input>
			<output>
				<port id="5" precision="FP32" names="561,query_states.5">
					<dim>-1</dim>
					<dim>-1</dim>
					<dim>3072</dim>
				</port>
			</output>
		</layer>
		<layer id="333" name="Constant_147876" type="Const" version="opset1">
			<data element_type="i64" shape="4" offset="112795656" size="32" />
			<output>
				<port id="0" precision="I64">
					<dim>4</dim>
				</port>
			</output>
		</layer>
		<layer id="334" name="__module.model.layers.1.self_attn/aten::view/Reshape" type="Reshape" version="opset1">
			<data special_zero="true" />
			<input>
				<port id="0" precision="FP32">
					<dim>-1</dim>
					<dim>-1</dim>
					<dim>3072</dim>
				</port>
				<port id="1" precision="I64">
					<dim>4</dim>
				</port>
			</input>
			<output>
				<port id="2" precision="FP32" names="565">
					<dim>-1</dim>
					<dim>-1</dim>
					<dim>32</dim>
					<dim>96</dim>
				</port>
			</output>
		</layer>
		<layer id="335" name="__module.model.layers.1.self_attn/aten::transpose/Constant" type="Const" version="opset1">
			<data element_type="i32" shape="4" offset="112795688" size="16" />
			<output>
				<port id="0" precision="I32">
					<dim>4</dim>
				</port>
			</output>
		</layer>
		<layer id="336" name="__module.model.layers.1.self_attn/aten::transpose/Transpose" type="Transpose" version="opset1">
			<input>
				<port id="0" precision="FP32">
					<dim>-1</dim>
					<dim>-1</dim>
					<dim>32</dim>
					<dim>96</dim>
				</port>
				<port id="1" precision="I32">
					<dim>4</dim>
				</port>
			</input>
			<output>
				<port id="2" precision="FP32" names="566,q.3">
					<dim>-1</dim>
					<dim>32</dim>
					<dim>-1</dim>
					<dim>96</dim>
				</port>
			</output>
		</layer>
		<layer id="337" name="Constant_1783" type="Const" version="opset1">
			<data element_type="i64" shape="1" offset="4" size="8" />
			<output>
				<port id="0" precision="I64">
					<dim>1</dim>
				</port>
			</output>
		</layer>
		<layer id="338" name="Constant_1786" type="Const" version="opset1">
			<data element_type="i64" shape="1" offset="112795640" size="8" />
			<output>
				<port id="0" precision="I64">
					<dim>1</dim>
				</port>
			</output>
		</layer>
		<layer id="339" name="Constant_1781" type="Const" version="opset1">
			<data element_type="i64" shape="1" offset="112795928" size="8" />
			<output>
				<port id="0" precision="I64">
					<dim>1</dim>
				</port>
			</output>
		</layer>
		<layer id="340" name="__module.model.layers.1.self_attn/aten::slice/Slice_1" type="Slice" version="opset8">
			<input>
				<port id="0" precision="FP32">
					<dim>-1</dim>
					<dim>32</dim>
					<dim>-1</dim>
					<dim>96</dim>
				</port>
				<port id="1" precision="I64">
					<dim>1</dim>
				</port>
				<port id="2" precision="I64">
					<dim>1</dim>
				</port>
				<port id="3" precision="I64">
					<dim>1</dim>
				</port>
				<port id="4" precision="I64">
					<dim>1</dim>
				</port>
			</input>
			<output>
				<port id="5" precision="FP32" names="611,q_rot.3">
					<dim>-1</dim>
					<dim>32</dim>
					<dim>-1</dim>
					<dim>96</dim>
				</port>
			</output>
		</layer>
		<layer id="341" name="__module.model.layers.1.self_attn/aten::mul/Multiply" type="Multiply" version="opset1">
			<data auto_broadcast="numpy" />
			<input>
				<port id="0" precision="FP32">
					<dim>-1</dim>
					<dim>32</dim>
					<dim>-1</dim>
					<dim>96</dim>
				</port>
				<port id="1" precision="FP32">
					<dim>-1</dim>
					<dim>1</dim>
					<dim>-1</dim>
					<dim>96</dim>
				</port>
			</input>
			<output>
				<port id="2" precision="FP32" names="615">
					<dim>-1</dim>
					<dim>32</dim>
					<dim>-1</dim>
					<dim>96</dim>
				</port>
			</output>
		</layer>
		<layer id="342" name="Constant_1965" type="Const" version="opset1">
			<data element_type="i64" shape="1" offset="112795944" size="8" />
			<output>
				<port id="0" precision="I64">
					<dim>1</dim>
				</port>
			</output>
		</layer>
		<layer id="343" name="Constant_1967" type="Const" version="opset1">
			<data element_type="i64" shape="1" offset="112795640" size="8" />
			<output>
				<port id="0" precision="I64">
					<dim>1</dim>
				</port>
			</output>
		</layer>
		<layer id="344" name="Constant_1924" type="Const" version="opset1">
			<data element_type="i64" shape="1" offset="112795928" size="8" />
			<output>
				<port id="0" precision="I64">
					<dim>1</dim>
				</port>
			</output>
		</layer>
		<layer id="345" name="__module.model.layers.1.self_attn/aten::slice/Slice_2" type="Slice" version="opset8">
			<input>
				<port id="0" precision="FP32">
					<dim>-1</dim>
					<dim>32</dim>
					<dim>-1</dim>
					<dim>96</dim>
				</port>
				<port id="1" precision="I64">
					<dim>1</dim>
				</port>
				<port id="2" precision="I64">
					<dim>1</dim>
				</port>
				<port id="3" precision="I64">
					<dim>1</dim>
				</port>
				<port id="4" precision="I64">
					<dim>1</dim>
				</port>
			</input>
			<output>
				<port id="5" precision="FP32" names="625,x2.5">
					<dim>-1</dim>
					<dim>32</dim>
					<dim>-1</dim>
					<dim>48</dim>
				</port>
			</output>
		</layer>
		<layer id="346" name="__module.model.layers.1.self_attn/aten::neg/Constant" type="Const" version="opset1">
			<data element_type="i32" shape="" offset="112795952" size="4" />
			<output>
				<port id="0" precision="I32" />
			</output>
		</layer>
		<layer id="347" name="__module.model.layers.1.self_attn/aten::neg/ConvertLike" type="Convert" version="opset1">
			<data destination_type="f32" />
			<input>
				<port id="0" precision="I32" />
			</input>
			<output>
				<port id="1" precision="FP32" />
			</output>
		</layer>
		<layer id="348" name="__module.model.layers.1.self_attn/aten::neg/Multiply" type="Multiply" version="opset1">
			<data auto_broadcast="numpy" />
			<input>
				<port id="0" precision="FP32">
					<dim>-1</dim>
					<dim>32</dim>
					<dim>-1</dim>
					<dim>48</dim>
				</port>
				<port id="1" precision="FP32" />
			</input>
			<output>
				<port id="2" precision="FP32" names="626">
					<dim>-1</dim>
					<dim>32</dim>
					<dim>-1</dim>
					<dim>48</dim>
				</port>
			</output>
		</layer>
		<layer id="349" name="Constant_1832" type="Const" version="opset1">
			<data element_type="i64" shape="1" offset="4" size="8" />
			<output>
				<port id="0" precision="I64">
					<dim>1</dim>
				</port>
			</output>
		</layer>
		<layer id="350" name="Constant_1873" type="Const" version="opset1">
			<data element_type="i64" shape="1" offset="112795640" size="8" />
			<output>
				<port id="0" precision="I64">
					<dim>1</dim>
				</port>
			</output>
		</layer>
		<layer id="351" name="Constant_1830" type="Const" version="opset1">
			<data element_type="i64" shape="1" offset="112795928" size="8" />
			<output>
				<port id="0" precision="I64">
					<dim>1</dim>
				</port>
			</output>
		</layer>
		<layer id="352" name="__module.model.layers.1.self_attn/aten::slice/Slice_3" type="Slice" version="opset8">
			<input>
				<port id="0" precision="FP32">
					<dim>-1</dim>
					<dim>32</dim>
					<dim>-1</dim>
					<dim>96</dim>
				</port>
				<port id="1" precision="I64">
					<dim>1</dim>
				</port>
				<port id="2" precision="I64">
					<dim>1</dim>
				</port>
				<port id="3" precision="I64">
					<dim>1</dim>
				</port>
				<port id="4" precision="I64">
					<dim>1</dim>
				</port>
			</input>
			<output>
				<port id="5" precision="FP32" names="620,x1.5">
					<dim>-1</dim>
					<dim>32</dim>
					<dim>-1</dim>
					<dim>48</dim>
				</port>
			</output>
		</layer>
		<layer id="353" name="__module.model.layers.1.self_attn/aten::cat/Concat" type="Concat" version="opset1">
			<data axis="-1" />
			<input>
				<port id="0" precision="FP32">
					<dim>-1</dim>
					<dim>32</dim>
					<dim>-1</dim>
					<dim>48</dim>
				</port>
				<port id="1" precision="FP32">
					<dim>-1</dim>
					<dim>32</dim>
					<dim>-1</dim>
					<dim>48</dim>
				</port>
			</input>
			<output>
				<port id="2" precision="FP32" names="628">
					<dim>-1</dim>
					<dim>32</dim>
					<dim>-1</dim>
					<dim>96</dim>
				</port>
			</output>
		</layer>
		<layer id="354" name="__module.model.layers.1.self_attn/aten::mul/Multiply_1" type="Multiply" version="opset1">
			<data auto_broadcast="numpy" />
			<input>
				<port id="0" precision="FP32">
					<dim>-1</dim>
					<dim>32</dim>
					<dim>-1</dim>
					<dim>96</dim>
				</port>
				<port id="1" precision="FP32">
					<dim>-1</dim>
					<dim>1</dim>
					<dim>-1</dim>
					<dim>96</dim>
				</port>
			</input>
			<output>
				<port id="2" precision="FP32" names="629">
					<dim>-1</dim>
					<dim>32</dim>
					<dim>-1</dim>
					<dim>96</dim>
				</port>
			</output>
		</layer>
		<layer id="355" name="__module.model.layers.1.self_attn/aten::add/Add" type="Add" version="opset1">
			<data auto_broadcast="numpy" />
			<input>
				<port id="0" precision="FP32">
					<dim>-1</dim>
					<dim>32</dim>
					<dim>-1</dim>
					<dim>96</dim>
				</port>
				<port id="1" precision="FP32">
					<dim>-1</dim>
					<dim>32</dim>
					<dim>-1</dim>
					<dim>96</dim>
				</port>
			</input>
			<output>
				<port id="2" precision="FP32" names="630,632,query_states.7">
					<dim>-1</dim>
					<dim>32</dim>
					<dim>-1</dim>
					<dim>96</dim>
				</port>
			</output>
		</layer>
		<layer id="356" name="Constant_153717" type="Const" version="opset1">
			<data element_type="f32" shape="" offset="0" size="4" />
			<output>
				<port id="0" precision="FP32" />
			</output>
		</layer>
		<layer id="357" name="Constant_153710" type="Const" version="opset1">
			<data element_type="i64" shape="1" offset="12" size="8" />
			<output>
				<port id="0" precision="I64">
					<dim>1</dim>
				</port>
			</output>
		</layer>
		<layer id="358" name="Constant_153712" type="Const" version="opset1">
			<data element_type="i64" shape="1" offset="4" size="8" />
			<output>
				<port id="0" precision="I64">
					<dim>1</dim>
				</port>
			</output>
		</layer>
		<layer id="359" name="Constant_153714" type="Const" version="opset1">
			<data element_type="i64" shape="1" offset="20" size="8" />
			<output>
				<port id="0" precision="I64">
					<dim>1</dim>
				</port>
			</output>
		</layer>
		<layer id="360" name="Concat_153715" type="Concat" version="opset1">
			<data axis="0" />
			<input>
				<port id="0" precision="I64">
					<dim>1</dim>
				</port>
				<port id="1" precision="I64">
					<dim>1</dim>
				</port>
				<port id="2" precision="I64">
					<dim>1</dim>
				</port>
				<port id="3" precision="I64">
					<dim>1</dim>
				</port>
			</input>
			<output>
				<port id="4" precision="I64">
					<dim>4</dim>
				</port>
			</output>
		</layer>
		<layer id="361" name="Broadcast_153718" type="Broadcast" version="opset3">
			<data mode="numpy" />
			<input>
				<port id="0" precision="FP32" />
				<port id="1" precision="I64">
					<dim>4</dim>
				</port>
			</input>
			<output>
				<port id="2" precision="FP32">
					<dim>-1</dim>
					<dim>32</dim>
					<dim>0</dim>
					<dim>96</dim>
				</port>
			</output>
		</layer>
		<layer id="362" name="ReadValue_152488" type="ReadValue" version="opset6">
			<data variable_id="past_key_values.1.keypresent.1.key" variable_type="f32" variable_shape="?,32,?,96" />
			<input>
				<port id="0" precision="FP32">
					<dim>-1</dim>
					<dim>32</dim>
					<dim>0</dim>
					<dim>96</dim>
				</port>
			</input>
			<output>
				<port id="1" precision="FP32" names="past_key_values.1.key">
					<dim>-1</dim>
					<dim>32</dim>
					<dim>-1</dim>
					<dim>96</dim>
				</port>
			</output>
		</layer>
		<layer id="363" name="Constant_151256" type="Const" version="opset1">
			<data element_type="i64" shape="" offset="4" size="8" />
			<output>
				<port id="0" precision="I64" />
			</output>
		</layer>
		<layer id="364" name="Gather_151257" type="Gather" version="opset8">
			<data batch_dims="0" />
			<input>
				<port id="0" precision="FP32">
					<dim>-1</dim>
					<dim>32</dim>
					<dim>-1</dim>
					<dim>96</dim>
				</port>
				<port id="1" precision="I32">
					<dim>-1</dim>
				</port>
				<port id="2" precision="I64" />
			</input>
			<output>
				<port id="3" precision="FP32">
					<dim>-1</dim>
					<dim>32</dim>
					<dim>-1</dim>
					<dim>96</dim>
				</port>
			</output>
		</layer>
		<layer id="365" name="Constant_1476" type="Const" version="opset1">
			<data element_type="i64" shape="1" offset="112795632" size="8" />
			<output>
				<port id="0" precision="I64">
					<dim>1</dim>
				</port>
			</output>
		</layer>
		<layer id="366" name="Constant_1478" type="Const" version="opset1">
			<data element_type="i64" shape="1" offset="112795936" size="8" />
			<output>
				<port id="0" precision="I64">
					<dim>1</dim>
				</port>
			</output>
		</layer>
		<layer id="367" name="Constant_1480" type="Const" version="opset1">
			<data element_type="i64" shape="1" offset="112795640" size="8" />
			<output>
				<port id="0" precision="I64">
					<dim>1</dim>
				</port>
			</output>
		</layer>
		<layer id="368" name="Constant_1474" type="Const" version="opset1">
			<data element_type="i64" shape="1" offset="112795648" size="8" />
			<output>
				<port id="0" precision="I64">
					<dim>1</dim>
				</port>
			</output>
		</layer>
		<layer id="369" name="__module.model.layers.1.self_attn/aten::slice/Slice_5" type="Slice" version="opset8">
			<input>
				<port id="0" precision="FP32">
					<dim>-1</dim>
					<dim>-1</dim>
					<dim>9216</dim>
				</port>
				<port id="1" precision="I64">
					<dim>1</dim>
				</port>
				<port id="2" precision="I64">
					<dim>1</dim>
				</port>
				<port id="3" precision="I64">
					<dim>1</dim>
				</port>
				<port id="4" precision="I64">
					<dim>1</dim>
				</port>
			</input>
			<output>
				<port id="5" precision="FP32" names="562,key_states.9">
					<dim>-1</dim>
					<dim>-1</dim>
					<dim>3072</dim>
				</port>
			</output>
		</layer>
		<layer id="370" name="Constant_147877" type="Const" version="opset1">
			<data element_type="i64" shape="4" offset="112795656" size="32" />
			<output>
				<port id="0" precision="I64">
					<dim>4</dim>
				</port>
			</output>
		</layer>
		<layer id="371" name="__module.model.layers.1.self_attn/aten::view/Reshape_1" type="Reshape" version="opset1">
			<data special_zero="true" />
			<input>
				<port id="0" precision="FP32">
					<dim>-1</dim>
					<dim>-1</dim>
					<dim>3072</dim>
				</port>
				<port id="1" precision="I64">
					<dim>4</dim>
				</port>
			</input>
			<output>
				<port id="2" precision="FP32" names="568">
					<dim>-1</dim>
					<dim>-1</dim>
					<dim>32</dim>
					<dim>96</dim>
				</port>
			</output>
		</layer>
		<layer id="372" name="__module.model.layers.1.self_attn/aten::transpose/Constant_1" type="Const" version="opset1">
			<data element_type="i32" shape="4" offset="112795688" size="16" />
			<output>
				<port id="0" precision="I32">
					<dim>4</dim>
				</port>
			</output>
		</layer>
		<layer id="373" name="__module.model.layers.1.self_attn/aten::transpose/Transpose_1" type="Transpose" version="opset1">
			<input>
				<port id="0" precision="FP32">
					<dim>-1</dim>
					<dim>-1</dim>
					<dim>32</dim>
					<dim>96</dim>
				</port>
				<port id="1" precision="I32">
					<dim>4</dim>
				</port>
			</input>
			<output>
				<port id="2" precision="FP32" names="569,key_states.11">
					<dim>-1</dim>
					<dim>32</dim>
					<dim>-1</dim>
					<dim>96</dim>
				</port>
			</output>
		</layer>
		<layer id="374" name="Constant_1801" type="Const" version="opset1">
			<data element_type="i64" shape="1" offset="4" size="8" />
			<output>
				<port id="0" precision="I64">
					<dim>1</dim>
				</port>
			</output>
		</layer>
		<layer id="375" name="Constant_1804" type="Const" version="opset1">
			<data element_type="i64" shape="1" offset="112795640" size="8" />
			<output>
				<port id="0" precision="I64">
					<dim>1</dim>
				</port>
			</output>
		</layer>
		<layer id="376" name="Constant_1799" type="Const" version="opset1">
			<data element_type="i64" shape="1" offset="112795928" size="8" />
			<output>
				<port id="0" precision="I64">
					<dim>1</dim>
				</port>
			</output>
		</layer>
		<layer id="377" name="__module.model.layers.1.self_attn/aten::slice/Slice_6" type="Slice" version="opset8">
			<input>
				<port id="0" precision="FP32">
					<dim>-1</dim>
					<dim>32</dim>
					<dim>-1</dim>
					<dim>96</dim>
				</port>
				<port id="1" precision="I64">
					<dim>1</dim>
				</port>
				<port id="2" precision="I64">
					<dim>1</dim>
				</port>
				<port id="3" precision="I64">
					<dim>1</dim>
				</port>
				<port id="4" precision="I64">
					<dim>1</dim>
				</port>
			</input>
			<output>
…
		<edge from-layer="4142" from-port="2" to-layer="4143" to-port="2" />
		<edge from-layer="4142" from-port="2" to-layer="4687" to-port="0" />
		<edge from-layer="4143" from-port="4" to-layer="4145" to-port="0" />
		<edge from-layer="4144" from-port="0" to-layer="4145" to-port="1" />
		<edge from-layer="4145" from-port="2" to-layer="4147" to-port="0" />
		<edge from-layer="4146" from-port="0" to-layer="4147" to-port="1" />
		<edge from-layer="4147" from-port="2" to-layer="4153" to-port="0" />
		<edge from-layer="4148" from-port="0" to-layer="4149" to-port="0" />
		<edge from-layer="4149" from-port="1" to-layer="4151" to-port="0" />
		<edge from-layer="4150" from-port="0" to-layer="4151" to-port="1" />
		<edge from-layer="4151" from-port="2" to-layer="4152" to-port="0" />
		<edge from-layer="4152" from-port="1" to-layer="4153" to-port="1" />
		<edge from-layer="4153" from-port="2" to-layer="4154" to-port="1" />
		<edge from-layer="4154" from-port="2" to-layer="4158" to-port="0" />
		<edge from-layer="4154" from-port="2" to-layer="4182" to-port="0" />
		<edge from-layer="4154" from-port="2" to-layer="4165" to-port="0" />
		<edge from-layer="4155" from-port="0" to-layer="4166" to-port="0" />
		<edge from-layer="4156" from-port="0" to-layer="4164" to-port="0" />
		<edge from-layer="4157" from-port="0" to-layer="4158" to-port="1" />
		<edge from-layer="4158" from-port="2" to-layer="4160" to-port="0" />
		<edge from-layer="4159" from-port="0" to-layer="4160" to-port="1" />
		<edge from-layer="4160" from-port="2" to-layer="4162" to-port="0" />
		<edge from-layer="4161" from-port="0" to-layer="4162" to-port="1" />
		<edge from-layer="4162" from-port="2" to-layer="4163" to-port="0" />
		<edge from-layer="4163" from-port="1" to-layer="4164" to-port="1" />
		<edge from-layer="4164" from-port="2" to-layer="4165" to-port="1" />
		<edge from-layer="4165" from-port="2" to-layer="4166" to-port="1" />
		<edge from-layer="4166" from-port="2" to-layer="4172" to-port="0" />
		<edge from-layer="4167" from-port="0" to-layer="4168" to-port="0" />
		<edge from-layer="4168" from-port="1" to-layer="4170" to-port="0" />
		<edge from-layer="4169" from-port="0" to-layer="4170" to-port="1" />
		<edge from-layer="4170" from-port="2" to-layer="4171" to-port="0" />
		<edge from-layer="4171" from-port="1" to-layer="4172" to-port="1" />
		<edge from-layer="4172" from-port="2" to-layer="4173" to-port="0" />
		<edge from-layer="4173" from-port="4" to-layer="4175" to-port="0" />
		<edge from-layer="4173" from-port="3" to-layer="4174" to-port="0" />
		<edge from-layer="4174" from-port="1" to-layer="4175" to-port="1" />
		<edge from-layer="4175" from-port="2" to-layer="4181" to-port="0" />
		<edge from-layer="4176" from-port="0" to-layer="4177" to-port="0" />
		<edge from-layer="4177" from-port="1" to-layer="4179" to-port="0" />
		<edge from-layer="4178" from-port="0" to-layer="4179" to-port="1" />
		<edge from-layer="4179" from-port="2" to-layer="4180" to-port="0" />
		<edge from-layer="4180" from-port="1" to-layer="4181" to-port="1" />
		<edge from-layer="4181" from-port="2" to-layer="4182" to-port="1" />
		<edge from-layer="4182" from-port="2" to-layer="4186" to-port="0" />
		<edge from-layer="4182" from-port="2" to-layer="4297" to-port="0" />
		<edge from-layer="4182" from-port="2" to-layer="4193" to-port="0" />
		<edge from-layer="4183" from-port="0" to-layer="4194" to-port="0" />
		<edge from-layer="4184" from-port="0" to-layer="4192" to-port="0" />
		<edge from-layer="4185" from-port="0" to-layer="4186" to-port="1" />
		<edge from-layer="4186" from-port="2" to-layer="4188" to-port="0" />
		<edge from-layer="4187" from-port="0" to-layer="4188" to-port="1" />
		<edge from-layer="4188" from-port="2" to-layer="4190" to-port="0" />
		<edge from-layer="4189" from-port="0" to-layer="4190" to-port="1" />
		<edge from-layer="4190" from-port="2" to-layer="4191" to-port="0" />
		<edge from-layer="4191" from-port="1" to-layer="4192" to-port="1" />
		<edge from-layer="4192" from-port="2" to-layer="4193" to-port="1" />
		<edge from-layer="4193" from-port="2" to-layer="4194" to-port="1" />
		<edge from-layer="4194" from-port="2" to-layer="4200" to-port="0" />
		<edge from-layer="4195" from-port="0" to-layer="4196" to-port="0" />
		<edge from-layer="4196" from-port="1" to-layer="4198" to-port="0" />
		<edge from-layer="4197" from-port="0" to-layer="4198" to-port="1" />
		<edge from-layer="4198" from-port="2" to-layer="4199" to-port="0" />
		<edge from-layer="4199" from-port="1" to-layer="4200" to-port="1" />
		<edge from-layer="4200" from-port="2" to-layer="4280" to-port="0" />
		<edge from-layer="4200" from-port="2" to-layer="4242" to-port="0" />
		<edge from-layer="4200" from-port="2" to-layer="4205" to-port="0" />
		<edge from-layer="4201" from-port="0" to-layer="4205" to-port="1" />
		<edge from-layer="4202" from-port="0" to-layer="4205" to-port="2" />
		<edge from-layer="4203" from-port="0" to-layer="4205" to-port="3" />
		<edge from-layer="4204" from-port="0" to-layer="4205" to-port="4" />
		<edge from-layer="4205" from-port="5" to-layer="4207" to-port="0" />
		<edge from-layer="4206" from-port="0" to-layer="4207" to-port="1" />
		<edge from-layer="4207" from-port="2" to-layer="4209" to-port="0" />
		<edge from-layer="4208" from-port="0" to-layer="4209" to-port="1" />
		<edge from-layer="4209" from-port="2" to-layer="4213" to-port="0" />
		<edge from-layer="4210" from-port="0" to-layer="4213" to-port="1" />
		<edge from-layer="4211" from-port="0" to-layer="4213" to-port="3" />
		<edge from-layer="4212" from-port="0" to-layer="4213" to-port="4" />
		<edge from-layer="4213" from-port="5" to-layer="4225" to-port="0" />
		<edge from-layer="4213" from-port="5" to-layer="4214" to-port="0" />
		<edge from-layer="4213" from-port="5" to-layer="4218" to-port="0" />
		<edge from-layer="4214" from-port="2" to-layer="4228" to-port="0" />
		<edge from-layer="4215" from-port="0" to-layer="4218" to-port="2" />
		<edge from-layer="4216" from-port="0" to-layer="4218" to-port="3" />
		<edge from-layer="4217" from-port="0" to-layer="4218" to-port="4" />
		<edge from-layer="4218" from-port="5" to-layer="4221" to-port="0" />
		<edge from-layer="4219" from-port="0" to-layer="4220" to-port="0" />
		<edge from-layer="4220" from-port="1" to-layer="4221" to-port="1" />
		<edge from-layer="4221" from-port="2" to-layer="4226" to-port="0" />
		<edge from-layer="4222" from-port="0" to-layer="4225" to-port="1" />
		<edge from-layer="4223" from-port="0" to-layer="4225" to-port="3" />
		<edge from-layer="4224" from-port="0" to-layer="4225" to-port="4" />
		<edge from-layer="4225" from-port="5" to-layer="4226" to-port="1" />
		<edge from-layer="4226" from-port="2" to-layer="4227" to-port="0" />
		<edge from-layer="4227" from-port="2" to-layer="4228" to-port="1" />
		<edge from-layer="4228" from-port="2" to-layer="4286" to-port="0" />
		<edge from-layer="4229" from-port="0" to-layer="4234" to-port="0" />
		<edge from-layer="4230" from-port="0" to-layer="4233" to-port="1" />
		<edge from-layer="4231" from-port="0" to-layer="4233" to-port="2" />
		<edge from-layer="4232" from-port="0" to-layer="4233" to-port="3" />
		<edge from-layer="4233" from-port="4" to-layer="4234" to-port="1" />
		<edge from-layer="4234" from-port="2" to-layer="4235" to-port="0" />
		<edge from-layer="4235" from-port="1" to-layer="4237" to-port="0" />
		<edge from-layer="4236" from-port="0" to-layer="4237" to-port="2" />
		<edge from-layer="4237" from-port="3" to-layer="4266" to-port="0" />
		<edge from-layer="4238" from-port="0" to-layer="4242" to-port="1" />
		<edge from-layer="4239" from-port="0" to-layer="4242" to-port="2" />
		<edge from-layer="4240" from-port="0" to-layer="4242" to-port="3" />
		<edge from-layer="4241" from-port="0" to-layer="4242" to-port="4" />
		<edge from-layer="4242" from-port="5" to-layer="4244" to-port="0" />
		<edge from-layer="4243" from-port="0" to-layer="4244" to-port="1" />
		<edge from-layer="4244" from-port="2" to-layer="4246" to-port="0" />
		<edge from-layer="4245" from-port="0" to-layer="4246" to-port="1" />
		<edge from-layer="4246" from-port="2" to-layer="4250" to-port="0" />
		<edge from-layer="4247" from-port="0" to-layer="4250" to-port="1" />
		<edge from-layer="4248" from-port="0" to-layer="4250" to-port="3" />
		<edge from-layer="4249" from-port="0" to-layer="4250" to-port="4" />
		<edge from-layer="4250" from-port="5" to-layer="4262" to-port="0" />
		<edge from-layer="4250" from-port="5" to-layer="4255" to-port="0" />
		<edge from-layer="4250" from-port="5" to-layer="4251" to-port="0" />
		<edge from-layer="4251" from-port="2" to-layer="4265" to-port="0" />
		<edge from-layer="4252" from-port="0" to-layer="4255" to-port="2" />
		<edge from-layer="4253" from-port="0" to-layer="4255" to-port="3" />
		<edge from-layer="4254" from-port="0" to-layer="4255" to-port="4" />
		<edge from-layer="4255" from-port="5" to-layer="4258" to-port="0" />
		<edge from-layer="4256" from-port="0" to-layer="4257" to-port="0" />
		<edge from-layer="4257" from-port="1" to-layer="4258" to-port="1" />
		<edge from-layer="4258" from-port="2" to-layer="4263" to-port="0" />
		<edge from-layer="4259" from-port="0" to-layer="4262" to-port="1" />
		<edge from-layer="4260" from-port="0" to-layer="4262" to-port="3" />
		<edge from-layer="4261" from-port="0" to-layer="4262" to-port="4" />
		<edge from-layer="4262" from-port="5" to-layer="4263" to-port="1" />
		<edge from-layer="4263" from-port="2" to-layer="4264" to-port="0" />
		<edge from-layer="4264" from-port="2" to-layer="4265" to-port="1" />
		<edge from-layer="4265" from-port="2" to-layer="4266" to-port="1" />
		<edge from-layer="4266" from-port="2" to-layer="4286" to-port="1" />
		<edge from-layer="4266" from-port="2" to-layer="4686" to-port="0" />
		<edge from-layer="4267" from-port="0" to-layer="4272" to-port="0" />
		<edge from-layer="4268" from-port="0" to-layer="4271" to-port="1" />
		<edge from-layer="4269" from-port="0" to-layer="4271" to-port="2" />
		<edge from-layer="4270" from-port="0" to-layer="4271" to-port="3" />
		<edge from-layer="4271" from-port="4" to-layer="4272" to-port="1" />
		<edge from-layer="4272" from-port="2" to-layer="4273" to-port="0" />
		<edge from-layer="4273" from-port="1" to-layer="4275" to-port="0" />
		<edge from-layer="4274" from-port="0" to-layer="4275" to-port="2" />
		<edge from-layer="4275" from-port="3" to-layer="4285" to-port="0" />
		<edge from-layer="4276" from-port="0" to-layer="4280" to-port="1" />
		<edge from-layer="4277" from-port="0" to-layer="4280" to-port="2" />
		<edge from-layer="4278" from-port="0" to-layer="4280" to-port="3" />
		<edge from-layer="4279" from-port="0" to-layer="4280" to-port="4" />
		<edge from-layer="4280" from-port="5" to-layer="4282" to-port="0" />
		<edge from-layer="4281" from-port="0" to-layer="4282" to-port="1" />
		<edge from-layer="4282" from-port="2" to-layer="4284" to-port="0" />
		<edge from-layer="4283" from-port="0" to-layer="4284" to-port="1" />
		<edge from-layer="4284" from-port="2" to-layer="4285" to-port="1" />
		<edge from-layer="4285" from-port="2" to-layer="4685" to-port="0" />
		<edge from-layer="4285" from-port="2" to-layer="4286" to-port="2" />
		<edge from-layer="4286" from-port="4" to-layer="4288" to-port="0" />
		<edge from-layer="4287" from-port="0" to-layer="4288" to-port="1" />
		<edge from-layer="4288" from-port="2" to-layer="4290" to-port="0" />
		<edge from-layer="4289" from-port="0" to-layer="4290" to-port="1" />
		<edge from-layer="4290" from-port="2" to-layer="4296" to-port="0" />
		<edge from-layer="4291" from-port="0" to-layer="4292" to-port="0" />
		<edge from-layer="4292" from-port="1" to-layer="4294" to-port="0" />
		<edge from-layer="4293" from-port="0" to-layer="4294" to-port="1" />
		<edge from-layer="4294" from-port="2" to-layer="4295" to-port="0" />
		<edge from-layer="4295" from-port="1" to-layer="4296" to-port="1" />
		<edge from-layer="4296" from-port="2" to-layer="4297" to-port="1" />
		<edge from-layer="4297" from-port="2" to-layer="4325" to-port="0" />
		<edge from-layer="4297" from-port="2" to-layer="4308" to-port="0" />
		<edge from-layer="4297" from-port="2" to-layer="4301" to-port="0" />
		<edge from-layer="4298" from-port="0" to-layer="4309" to-port="0" />
		<edge from-layer="4299" from-port="0" to-layer="4307" to-port="0" />
		<edge from-layer="4300" from-port="0" to-layer="4301" to-port="1" />
		<edge from-layer="4301" from-port="2" to-layer="4303" to-port="0" />
		<edge from-layer="4302" from-port="0" to-layer="4303" to-port="1" />
		<edge from-layer="4303" from-port="2" to-layer="4305" to-port="0" />
		<edge from-layer="4304" from-port="0" to-layer="4305" to-port="1" />
		<edge from-layer="4305" from-port="2" to-layer="4306" to-port="0" />
		<edge from-layer="4306" from-port="1" to-layer="4307" to-port="1" />
		<edge from-layer="4307" from-port="2" to-layer="4308" to-port="1" />
		<edge from-layer="4308" from-port="2" to-layer="4309" to-port="1" />
		<edge from-layer="4309" from-port="2" to-layer="4315" to-port="0" />
		<edge from-layer="4310" from-port="0" to-layer="4311" to-port="0" />
		<edge from-layer="4311" from-port="1" to-layer="4313" to-port="0" />
		<edge from-layer="4312" from-port="0" to-layer="4313" to-port="1" />
		<edge from-layer="4313" from-port="2" to-layer="4314" to-port="0" />
		<edge from-layer="4314" from-port="1" to-layer="4315" to-port="1" />
		<edge from-layer="4315" from-port="2" to-layer="4316" to-port="0" />
		<edge from-layer="4316" from-port="3" to-layer="4317" to-port="0" />
		<edge from-layer="4316" from-port="4" to-layer="4318" to-port="0" />
		<edge from-layer="4317" from-port="1" to-layer="4318" to-port="1" />
		<edge from-layer="4318" from-port="2" to-layer="4324" to-port="0" />
		<edge from-layer="4319" from-port="0" to-layer="4320" to-port="0" />
		<edge from-layer="4320" from-port="1" to-layer="4322" to-port="0" />
		<edge from-layer="4321" from-port="0" to-layer="4322" to-port="1" />
		<edge from-layer="4322" from-port="2" to-layer="4323" to-port="0" />
		<edge from-layer="4323" from-port="1" to-layer="4324" to-port="1" />
		<edge from-layer="4324" from-port="2" to-layer="4325" to-port="1" />
		<edge from-layer="4325" from-port="2" to-layer="4336" to-port="0" />
		<edge from-layer="4325" from-port="2" to-layer="4440" to-port="0" />
		<edge from-layer="4325" from-port="2" to-layer="4329" to-port="0" />
		<edge from-layer="4326" from-port="0" to-layer="4337" to-port="0" />
		<edge from-layer="4327" from-port="0" to-layer="4335" to-port="0" />
		<edge from-layer="4328" from-port="0" to-layer="4329" to-port="1" />
		<edge from-layer="4329" from-port="2" to-layer="4331" to-port="0" />
		<edge from-layer="4330" from-port="0" to-layer="4331" to-port="1" />
		<edge from-layer="4331" from-port="2" to-layer="4333" to-port="0" />
		<edge from-layer="4332" from-port="0" to-layer="4333" to-port="1" />
		<edge from-layer="4333" from-port="2" to-layer="4334" to-port="0" />
		<edge from-layer="4334" from-port="1" to-layer="4335" to-port="1" />
		<edge from-layer="4335" from-port="2" to-layer="4336" to-port="1" />
		<edge from-layer="4336" from-port="2" to-layer="4337" to-port="1" />
		<edge from-layer="4337" from-port="2" to-layer="4343" to-port="0" />
		<edge from-layer="4338" from-port="0" to-layer="4339" to-port="0" />
		<edge from-layer="4339" from-port="1" to-layer="4341" to-port="0" />
		<edge from-layer="4340" from-port="0" to-layer="4341" to-port="1" />
		<edge from-layer="4341" from-port="2" to-layer="4342" to-port="0" />
		<edge from-layer="4342" from-port="1" to-layer="4343" to-port="1" />
		<edge from-layer="4343" from-port="2" to-layer="4348" to-port="0" />
		<edge from-layer="4343" from-port="2" to-layer="4385" to-port="0" />
		<edge from-layer="4343" from-port="2" to-layer="4423" to-port="0" />
		<edge from-layer="4344" from-port="0" to-layer="4348" to-port="1" />
		<edge from-layer="4345" from-port="0" to-layer="4348" to-port="2" />
		<edge from-layer="4346" from-port="0" to-layer="4348" to-port="3" />
		<edge from-layer="4347" from-port="0" to-layer="4348" to-port="4" />
		<edge from-layer="4348" from-port="5" to-layer="4350" to-port="0" />
		<edge from-layer="4349" from-port="0" to-layer="4350" to-port="1" />
		<edge from-layer="4350" from-port="2" to-layer="4352" to-port="0" />
		<edge from-layer="4351" from-port="0" to-layer="4352" to-port="1" />
		<edge from-layer="4352" from-port="2" to-layer="4356" to-port="0" />
		<edge from-layer="4353" from-port="0" to-layer="4356" to-port="1" />
		<edge from-layer="4354" from-port="0" to-layer="4356" to-port="3" />
		<edge from-layer="4355" from-port="0" to-layer="4356" to-port="4" />
		<edge from-layer="4356" from-port="5" to-layer="4357" to-port="0" />
		<edge from-layer="4356" from-port="5" to-layer="4368" to-port="0" />
		<edge from-layer="4356" from-port="5" to-layer="4361" to-port="0" />
		<edge from-layer="4357" from-port="2" to-layer="4371" to-port="0" />
		<edge from-layer="4358" from-port="0" to-layer="4361" to-port="2" />
		<edge from-layer="4359" from-port="0" to-layer="4361" to-port="3" />
		<edge from-layer="4360" from-port="0" to-layer="4361" to-port="4" />
		<edge from-layer="4361" from-port="5" to-layer="4364" to-port="0" />
		<edge from-layer="4362" from-port="0" to-layer="4363" to-port="0" />
		<edge from-layer="4363" from-port="1" to-layer="4364" to-port="1" />
		<edge from-layer="4364" from-port="2" to-layer="4369" to-port="0" />
		<edge from-layer="4365" from-port="0" to-layer="4368" to-port="1" />
		<edge from-layer="4366" from-port="0" to-layer="4368" to-port="3" />
		<edge from-layer="4367" from-port="0" to-layer="4368" to-port="4" />
		<edge from-layer="4368" from-port="5" to-layer="4369" to-port="1" />
		<edge from-layer="4369" from-port="2" to-layer="4370" to-port="0" />
		<edge from-layer="4370" from-port="2" to-layer="4371" to-port="1" />
		<edge from-layer="4371" from-port="2" to-layer="4429" to-port="0" />
		<edge from-layer="4372" from-port="0" to-layer="4377" to-port="0" />
		<edge from-layer="4373" from-port="0" to-layer="4376" to-port="1" />
		<edge from-layer="4374" from-port="0" to-layer="4376" to-port="2" />
		<edge from-layer="4375" from-port="0" to-layer="4376" to-port="3" />
		<edge from-layer="4376" from-port="4" to-layer="4377" to-port="1" />
		<edge from-layer="4377" from-port="2" to-layer="4378" to-port="0" />
		<edge from-layer="4378" from-port="1" to-layer="4380" to-port="0" />
		<edge from-layer="4379" from-port="0" to-layer="4380" to-port="2" />
		<edge from-layer="4380" from-port="3" to-layer="4409" to-port="0" />
		<edge from-layer="4381" from-port="0" to-layer="4385" to-port="1" />
		<edge from-layer="4382" from-port="0" to-layer="4385" to-port="2" />
		<edge from-layer="4383" from-port="0" to-layer="4385" to-port="3" />
		<edge from-layer="4384" from-port="0" to-layer="4385" to-port="4" />
		<edge from-layer="4385" from-port="5" to-layer="4387" to-port="0" />
		<edge from-layer="4386" from-port="0" to-layer="4387" to-port="1" />
		<edge from-layer="4387" from-port="2" to-layer="4389" to-port="0" />
		<edge from-layer="4388" from-port="0" to-layer="4389" to-port="1" />
		<edge from-layer="4389" from-port="2" to-layer="4393" to-port="0" />
		<edge from-layer="4390" from-port="0" to-layer="4393" to-port="1" />
		<edge from-layer="4391" from-port="0" to-layer="4393" to-port="3" />
		<edge from-layer="4392" from-port="0" to-layer="4393" to-port="4" />
		<edge from-layer="4393" from-port="5" to-layer="4405" to-port="0" />
		<edge from-layer="4393" from-port="5" to-layer="4394" to-port="0" />
		<edge from-layer="4393" from-port="5" to-layer="4398" to-port="0" />
		<edge from-layer="4394" from-port="2" to-layer="4408" to-port="0" />
		<edge from-layer="4395" from-port="0" to-layer="4398" to-port="2" />
		<edge from-layer="4396" from-port="0" to-layer="4398" to-port="3" />
		<edge from-layer="4397" from-port="0" to-layer="4398" to-port="4" />
		<edge from-layer="4398" from-port="5" to-layer="4401" to-port="0" />
		<edge from-layer="4399" from-port="0" to-layer="4400" to-port="0" />
		<edge from-layer="4400" from-port="1" to-layer="4401" to-port="1" />
		<edge from-layer="4401" from-port="2" to-layer="4406" to-port="0" />
		<edge from-layer="4402" from-port="0" to-layer="4405" to-port="1" />
		<edge from-layer="4403" from-port="0" to-layer="4405" to-port="3" />
		<edge from-layer="4404" from-port="0" to-layer="4405" to-port="4" />
		<edge from-layer="4405" from-port="5" to-layer="4406" to-port="1" />
		<edge from-layer="4406" from-port="2" to-layer="4407" to-port="0" />
		<edge from-layer="4407" from-port="2" to-layer="4408" to-port="1" />
		<edge from-layer="4408" from-port="2" to-layer="4409" to-port="1" />
		<edge from-layer="4409" from-port="2" to-layer="4684" to-port="0" />
		<edge from-layer="4409" from-port="2" to-layer="4429" to-port="1" />
		<edge from-layer="4410" from-port="0" to-layer="4415" to-port="0" />
		<edge from-layer="4411" from-port="0" to-layer="4414" to-port="1" />
		<edge from-layer="4412" from-port="0" to-layer="4414" to-port="2" />
		<edge from-layer="4413" from-port="0" to-layer="4414" to-port="3" />
		<edge from-layer="4414" from-port="4" to-layer="4415" to-port="1" />
		<edge from-layer="4415" from-port="2" to-layer="4416" to-port="0" />
		<edge from-layer="4416" from-port="1" to-layer="4418" to-port="0" />
		<edge from-layer="4417" from-port="0" to-layer="4418" to-port="2" />
		<edge from-layer="4418" from-port="3" to-layer="4428" to-port="0" />
		<edge from-layer="4419" from-port="0" to-layer="4423" to-port="1" />
		<edge from-layer="4420" from-port="0" to-layer="4423" to-port="2" />
		<edge from-layer="4421" from-port="0" to-layer="4423" to-port="3" />
		<edge from-layer="4422" from-port="0" to-layer="4423" to-port="4" />
		<edge from-layer="4423" from-port="5" to-layer="4425" to-port="0" />
		<edge from-layer="4424" from-port="0" to-layer="4425" to-port="1" />
		<edge from-layer="4425" from-port="2" to-layer="4427" to-port="0" />
		<edge from-layer="4426" from-port="0" to-layer="4427" to-port="1" />
		<edge from-layer="4427" from-port="2" to-layer="4428" to-port="1" />
		<edge from-layer="4428" from-port="2" to-layer="4683" to-port="0" />
		<edge from-layer="4428" from-port="2" to-layer="4429" to-port="2" />
		<edge from-layer="4429" from-port="4" to-layer="4431" to-port="0" />
		<edge from-layer="4430" from-port="0" to-layer="4431" to-port="1" />
		<edge from-layer="4431" from-port="2" to-layer="4433" to-port="0" />
		<edge from-layer="4432" from-port="0" to-layer="4433" to-port="1" />
		<edge from-layer="4433" from-port="2" to-layer="4439" to-port="0" />
		<edge from-layer="4434" from-port="0" to-layer="4435" to-port="0" />
		<edge from-layer="4435" from-port="1" to-layer="4437" to-port="0" />
		<edge from-layer="4436" from-port="0" to-layer="4437" to-port="1" />
		<edge from-layer="4437" from-port="2" to-layer="4438" to-port="0" />
		<edge from-layer="4438" from-port="1" to-layer="4439" to-port="1" />
		<edge from-layer="4439" from-port="2" to-layer="4440" to-port="1" />
		<edge from-layer="4440" from-port="2" to-layer="4444" to-port="0" />
		<edge from-layer="4440" from-port="2" to-layer="4451" to-port="0" />
		<edge from-layer="4440" from-port="2" to-layer="4468" to-port="0" />
		<edge from-layer="4441" from-port="0" to-layer="4452" to-port="0" />
		<edge from-layer="4442" from-port="0" to-layer="4450" to-port="0" />
		<edge from-layer="4443" from-port="0" to-layer="4444" to-port="1" />
		<edge from-layer="4444" from-port="2" to-layer="4446" to-port="0" />
		<edge from-layer="4445" from-port="0" to-layer="4446" to-port="1" />
		<edge from-layer="4446" from-port="2" to-layer="4448" to-port="0" />
		<edge from-layer="4447" from-port="0" to-layer="4448" to-port="1" />
		<edge from-layer="4448" from-port="2" to-layer="4449" to-port="0" />
		<edge from-layer="4449" from-port="1" to-layer="4450" to-port="1" />
		<edge from-layer="4450" from-port="2" to-layer="4451" to-port="1" />
		<edge from-layer="4451" from-port="2" to-layer="4452" to-port="1" />
		<edge from-layer="4452" from-port="2" to-layer="4458" to-port="0" />
		<edge from-layer="4453" from-port="0" to-layer="4454" to-port="0" />
		<edge from-layer="4454" from-port="1" to-layer="4456" to-port="0" />
		<edge from-layer="4455" from-port="0" to-layer="4456" to-port="1" />
		<edge from-layer="4456" from-port="2" to-layer="4457" to-port="0" />
		<edge from-layer="4457" from-port="1" to-layer="4458" to-port="1" />
		<edge from-layer="4458" from-port="2" to-layer="4459" to-port="0" />
		<edge from-layer="4459" from-port="3" to-layer="4460" to-port="0" />
		<edge from-layer="4459" from-port="4" to-layer="4461" to-port="0" />
		<edge from-layer="4460" from-port="1" to-layer="4461" to-port="1" />
		<edge from-layer="4461" from-port="2" to-layer="4467" to-port="0" />
		<edge from-layer="4462" from-port="0" to-layer="4463" to-port="0" />
		<edge from-layer="4463" from-port="1" to-layer="4465" to-port="0" />
		<edge from-layer="4464" from-port="0" to-layer="4465" to-port="1" />
		<edge from-layer="4465" from-port="2" to-layer="4466" to-port="0" />
		<edge from-layer="4466" from-port="1" to-layer="4467" to-port="1" />
		<edge from-layer="4467" from-port="2" to-layer="4468" to-port="1" />
		<edge from-layer="4468" from-port="2" to-layer="4472" to-port="0" />
		<edge from-layer="4468" from-port="2" to-layer="4583" to-port="0" />
		<edge from-layer="4468" from-port="2" to-layer="4479" to-port="0" />
		<edge from-layer="4469" from-port="0" to-layer="4480" to-port="0" />
		<edge from-layer="4470" from-port="0" to-layer="4478" to-port="0" />
		<edge from-layer="4471" from-port="0" to-layer="4472" to-port="1" />
		<edge from-layer="4472" from-port="2" to-layer="4474" to-port="0" />
		<edge from-layer="4473" from-port="0" to-layer="4474" to-port="1" />
		<edge from-layer="4474" from-port="2" to-layer="4476" to-port="0" />
		<edge from-layer="4475" from-port="0" to-layer="4476" to-port="1" />
		<edge from-layer="4476" from-port="2" to-layer="4477" to-port="0" />
		<edge from-layer="4477" from-port="1" to-layer="4478" to-port="1" />
		<edge from-layer="4478" from-port="2" to-layer="4479" to-port="1" />
		<edge from-layer="4479" from-port="2" to-layer="4480" to-port="1" />
		<edge from-layer="4480" from-port="2" to-layer="4486" to-port="0" />
		<edge from-layer="4481" from-port="0" to-layer="4482" to-port="0" />
		<edge from-layer="4482" from-port="1" to-layer="4484" to-port="0" />
		<edge from-layer="4483" from-port="0" to-layer="4484" to-port="1" />
		<edge from-layer="4484" from-port="2" to-layer="4485" to-port="0" />
		<edge from-layer="4485" from-port="1" to-layer="4486" to-port="1" />
		<edge from-layer="4486" from-port="2" to-layer="4528" to-port="0" />
		<edge from-layer="4486" from-port="2" to-layer="4566" to-port="0" />
		<edge from-layer="4486" from-port="2" to-layer="4491" to-port="0" />
		<edge from-layer="4487" from-port="0" to-layer="4491" to-port="1" />
		<edge from-layer="4488" from-port="0" to-layer="4491" to-port="2" />
		<edge from-layer="4489" from-port="0" to-layer="4491" to-port="3" />
		<edge from-layer="4490" from-port="0" to-layer="4491" to-port="4" />
		<edge from-layer="4491" from-port="5" to-layer="4493" to-port="0" />
		<edge from-layer="4492" from-port="0" to-layer="4493" to-port="1" />
		<edge from-layer="4493" from-port="2" to-layer="4495" to-port="0" />
		<edge from-layer="4494" from-port="0" to-layer="4495" to-port="1" />
		<edge from-layer="4495" from-port="2" to-layer="4499" to-port="0" />
		<edge from-layer="4496" from-port="0" to-layer="4499" to-port="1" />
		<edge from-layer="4497" from-port="0" to-layer="4499" to-port="3" />
		<edge from-layer="4498" from-port="0" to-layer="4499" to-port="4" />
		<edge from-layer="4499" from-port="5" to-layer="4500" to-port="0" />
		<edge from-layer="4499" from-port="5" to-layer="4504" to-port="0" />
		<edge from-layer="4499" from-port="5" to-layer="4511" to-port="0" />
		<edge from-layer="4500" from-port="2" to-layer="4514" to-port="0" />
		<edge from-layer="4501" from-port="0" to-layer="4504" to-port="2" />
		<edge from-layer="4502" from-port="0" to-layer="4504" to-port="3" />
		<edge from-layer="4503" from-port="0" to-layer="4504" to-port="4" />
		<edge from-layer="4504" from-port="5" to-layer="4507" to-port="0" />
		<edge from-layer="4505" from-port="0" to-layer="4506" to-port="0" />
		<edge from-layer="4506" from-port="1" to-layer="4507" to-port="1" />
		<edge from-layer="4507" from-port="2" to-layer="4512" to-port="0" />
		<edge from-layer="4508" from-port="0" to-layer="4511" to-port="1" />
		<edge from-layer="4509" from-port="0" to-layer="4511" to-port="3" />
		<edge from-layer="4510" from-port="0" to-layer="4511" to-port="4" />
		<edge from-layer="4511" from-port="5" to-layer="4512" to-port="1" />
		<edge from-layer="4512" from-port="2" to-layer="4513" to-port="0" />
		<edge from-layer="4513" from-port="2" to-layer="4514" to-port="1" />
		<edge from-layer="4514" from-port="2" to-layer="4572" to-port="0" />
		<edge from-layer="4515" from-port="0" to-layer="4520" to-port="0" />
		<edge from-layer="4516" from-port="0" to-layer="4519" to-port="1" />
		<edge from-layer="4517" from-port="0" to-layer="4519" to-port="2" />
		<edge from-layer="4518" from-port="0" to-layer="4519" to-port="3" />
		<edge from-layer="4519" from-port="4" to-layer="4520" to-port="1" />
		<edge from-layer="4520" from-port="2" to-layer="4521" to-port="0" />
		<edge from-layer="4521" from-port="1" to-layer="4523" to-port="0" />
		<edge from-layer="4522" from-port="0" to-layer="4523" to-port="2" />
		<edge from-layer="4523" from-port="3" to-layer="4552" to-port="0" />
		<edge from-layer="4524" from-port="0" to-layer="4528" to-port="1" />
		<edge from-layer="4525" from-port="0" to-layer="4528" to-port="2" />
		<edge from-layer="4526" from-port="0" to-layer="4528" to-port="3" />
		<edge from-layer="4527" from-port="0" to-layer="4528" to-port="4" />
		<edge from-layer="4528" from-port="5" to-layer="4530" to-port="0" />
		<edge from-layer="4529" from-port="0" to-layer="4530" to-port="1" />
		<edge from-layer="4530" from-port="2" to-layer="4532" to-port="0" />
		<edge from-layer="4531" from-port="0" to-layer="4532" to-port="1" />
		<edge from-layer="4532" from-port="2" to-layer="4536" to-port="0" />
		<edge from-layer="4533" from-port="0" to-layer="4536" to-port="1" />
		<edge from-layer="4534" from-port="0" to-layer="4536" to-port="3" />
		<edge from-layer="4535" from-port="0" to-layer="4536" to-port="4" />
		<edge from-layer="4536" from-port="5" to-layer="4541" to-port="0" />
		<edge from-layer="4536" from-port="5" to-layer="4537" to-port="0" />
		<edge from-layer="4536" from-port="5" to-layer="4548" to-port="0" />
		<edge from-layer="4537" from-port="2" to-layer="4551" to-port="0" />
		<edge from-layer="4538" from-port="0" to-layer="4541" to-port="2" />
		<edge from-layer="4539" from-port="0" to-layer="4541" to-port="3" />
		<edge from-layer="4540" from-port="0" to-layer="4541" to-port="4" />
		<edge from-layer="4541" from-port="5" to-layer="4544" to-port="0" />
		<edge from-layer="4542" from-port="0" to-layer="4543" to-port="0" />
		<edge from-layer="4543" from-port="1" to-layer="4544" to-port="1" />
		<edge from-layer="4544" from-port="2" to-layer="4549" to-port="0" />
		<edge from-layer="4545" from-port="0" to-layer="4548" to-port="1" />
		<edge from-layer="4546" from-port="0" to-layer="4548" to-port="3" />
		<edge from-layer="4547" from-port="0" to-layer="4548" to-port="4" />
		<edge from-layer="4548" from-port="5" to-layer="4549" to-port="1" />
		<edge from-layer="4549" from-port="2" to-layer="4550" to-port="0" />
		<edge from-layer="4550" from-port="2" to-layer="4551" to-port="1" />
		<edge from-layer="4551" from-port="2" to-layer="4552" to-port="1" />
		<edge from-layer="4552" from-port="2" to-layer="4572" to-port="1" />
		<edge from-layer="4552" from-port="2" to-layer="4680" to-port="0" />
		<edge from-layer="4553" from-port="0" to-layer="4558" to-port="0" />
		<edge from-layer="4554" from-port="0" to-layer="4557" to-port="1" />
		<edge from-layer="4555" from-port="0" to-layer="4557" to-port="2" />
		<edge from-layer="4556" from-port="0" to-layer="4557" to-port="3" />
		<edge from-layer="4557" from-port="4" to-layer="4558" to-port="1" />
		<edge from-layer="4558" from-port="2" to-layer="4559" to-port="0" />
		<edge from-layer="4559" from-port="1" to-layer="4561" to-port="0" />
		<edge from-layer="4560" from-port="0" to-layer="4561" to-port="2" />
		<edge from-layer="4561" from-port="3" to-layer="4571" to-port="0" />
		<edge from-layer="4562" from-port="0" to-layer="4566" to-port="1" />
		<edge from-layer="4563" from-port="0" to-layer="4566" to-port="2" />
		<edge from-layer="4564" from-port="0" to-layer="4566" to-port="3" />
		<edge from-layer="4565" from-port="0" to-layer="4566" to-port="4" />
		<edge from-layer="4566" from-port="5" to-layer="4568" to-port="0" />
		<edge from-layer="4567" from-port="0" to-layer="4568" to-port="1" />
		<edge from-layer="4568" from-port="2" to-layer="4570" to-port="0" />
		<edge from-layer="4569" from-port="0" to-layer="4570" to-port="1" />
		<edge from-layer="4570" from-port="2" to-layer="4571" to-port="1" />
		<edge from-layer="4571" from-port="2" to-layer="4679" to-port="0" />
		<edge from-layer="4571" from-port="2" to-layer="4572" to-port="2" />
		<edge from-layer="4572" from-port="4" to-layer="4574" to-port="0" />
		<edge from-layer="4573" from-port="0" to-layer="4574" to-port="1" />
		<edge from-layer="4574" from-port="2" to-layer="4576" to-port="0" />
		<edge from-layer="4575" from-port="0" to-layer="4576" to-port="1" />
		<edge from-layer="4576" from-port="2" to-layer="4582" to-port="0" />
		<edge from-layer="4577" from-port="0" to-layer="4578" to-port="0" />
		<edge from-layer="4578" from-port="1" to-layer="4580" to-port="0" />
		<edge from-layer="4579" from-port="0" to-layer="4580" to-port="1" />
		<edge from-layer="4580" from-port="2" to-layer="4581" to-port="0" />
		<edge from-layer="4581" from-port="1" to-layer="4582" to-port="1" />
		<edge from-layer="4582" from-port="2" to-layer="4583" to-port="1" />
		<edge from-layer="4583" from-port="2" to-layer="4611" to-port="0" />
		<edge from-layer="4583" from-port="2" to-layer="4594" to-port="0" />
		<edge from-layer="4583" from-port="2" to-layer="4587" to-port="0" />
		<edge from-layer="4584" from-port="0" to-layer="4595" to-port="0" />
		<edge from-layer="4585" from-port="0" to-layer="4593" to-port="0" />
		<edge from-layer="4586" from-port="0" to-layer="4587" to-port="1" />
		<edge from-layer="4587" from-port="2" to-layer="4589" to-port="0" />
		<edge from-layer="4588" from-port="0" to-layer="4589" to-port="1" />
		<edge from-layer="4589" from-port="2" to-layer="4591" to-port="0" />
		<edge from-layer="4590" from-port="0" to-layer="4591" to-port="1" />
		<edge from-layer="4591" from-port="2" to-layer="4592" to-port="0" />
		<edge from-layer="4592" from-port="1" to-layer="4593" to-port="1" />
		<edge from-layer="4593" from-port="2" to-layer="4594" to-port="1" />
		<edge from-layer="4594" from-port="2" to-layer="4595" to-port="1" />
		<edge from-layer="4595" from-port="2" to-layer="4601" to-port="0" />
		<edge from-layer="4596" from-port="0" to-layer="4597" to-port="0" />
		<edge from-layer="4597" from-port="1" to-layer="4599" to-port="0" />
		<edge from-layer="4598" from-port="0" to-layer="4599" to-port="1" />
		<edge from-layer="4599" from-port="2" to-layer="4600" to-port="0" />
		<edge from-layer="4600" from-port="1" to-layer="4601" to-port="1" />
		<edge from-layer="4601" from-port="2" to-layer="4602" to-port="0" />
		<edge from-layer="4602" from-port="4" to-layer="4604" to-port="0" />
		<edge from-layer="4602" from-port="3" to-layer="4603" to-port="0" />
		<edge from-layer="4603" from-port="1" to-layer="4604" to-port="1" />
		<edge from-layer="4604" from-port="2" to-layer="4610" to-port="0" />
		<edge from-layer="4605" from-port="0" to-layer="4606" to-port="0" />
		<edge from-layer="4606" from-port="1" to-layer="4608" to-port="0" />
		<edge from-layer="4607" from-port="0" to-layer="4608" to-port="1" />
		<edge from-layer="4608" from-port="2" to-layer="4609" to-port="0" />
		<edge from-layer="4609" from-port="1" to-layer="4610" to-port="1" />
		<edge from-layer="4610" from-port="2" to-layer="4611" to-port="1" />
		<edge from-layer="4611" from-port="2" to-layer="4614" to-port="0" />
		<edge from-layer="4611" from-port="2" to-layer="4621" to-port="0" />
		<edge from-layer="4611" from-port="2" to-layer="4769" to-port="0" />
		<edge from-layer="4612" from-port="0" to-layer="4620" to-port="0" />
		<edge from-layer="4613" from-port="0" to-layer="4614" to-port="1" />
		<edge from-layer="4614" from-port="2" to-layer="4616" to-port="0" />
		<edge from-layer="4615" from-port="0" to-layer="4616" to-port="1" />
		<edge from-layer="4616" from-port="2" to-layer="4618" to-port="0" />
		<edge from-layer="4617" from-port="0" to-layer="4618" to-port="1" />
		<edge from-layer="4618" from-port="2" to-layer="4619" to-port="0" />
		<edge from-layer="4619" from-port="1" to-layer="4620" to-port="1" />
		<edge from-layer="4620" from-port="2" to-layer="4621" to-port="1" />
		<edge from-layer="4621" from-port="2" to-layer="4622" to-port="1" />
		<edge from-layer="4622" from-port="2" to-layer="4628" to-port="0" />
		<edge from-layer="4623" from-port="0" to-layer="4624" to-port="0" />
		<edge from-layer="4624" from-port="1" to-layer="4626" to-port="0" />
		<edge from-layer="4625" from-port="0" to-layer="4626" to-port="1" />
		<edge from-layer="4626" from-port="2" to-layer="4627" to-port="0" />
		<edge from-layer="4627" from-port="1" to-layer="4628" to-port="1" />
		<edge from-layer="4628" from-port="2" to-layer="4633" to-port="0" />
		<edge from-layer="4628" from-port="2" to-layer="4734" to-port="0" />
		<edge from-layer="4628" from-port="2" to-layer="4653" to-port="0" />
		<edge from-layer="4629" from-port="0" to-layer="4633" to-port="1" />
		<edge from-layer="4630" from-port="0" to-layer="4633" to-port="2" />
		<edge from-layer="4631" from-port="0" to-layer="4633" to-port="3" />
		<edge from-layer="4632" from-port="0" to-layer="4633" to-port="4" />
		<edge from-layer="4633" from-port="5" to-layer="4635" to-port="0" />
		<edge from-layer="4634" from-port="0" to-layer="4635" to-port="1" />
		<edge from-layer="4635" from-port="2" to-layer="4637" to-port="0" />
		<edge from-layer="4636" from-port="0" to-layer="4637" to-port="1" />
		<edge from-layer="4637" from-port="2" to-layer="4638" to-port="1" />
		<edge from-layer="4638" from-port="2" to-layer="4639" to-port="0" />
		<edge from-layer="4638" from-port="2" to-layer="4758" to-port="2" />
		<edge from-layer="4640" from-port="0" to-layer="4645" to-port="0" />
		<edge from-layer="4641" from-port="0" to-layer="4644" to-port="1" />
		<edge from-layer="4642" from-port="0" to-layer="4644" to-port="2" />
		<edge from-layer="4643" from-port="0" to-layer="4644" to-port="3" />
		<edge from-layer="4644" from-port="4" to-layer="4645" to-port="1" />
		<edge from-layer="4645" from-port="2" to-layer="4646" to-port="0" />
		<edge from-layer="4646" from-port="1" to-layer="4648" to-port="0" />
		<edge from-layer="4647" from-port="0" to-layer="4648" to-port="2" />
		<edge from-layer="4648" from-port="3" to-layer="4677" to-port="0" />
		<edge from-layer="4649" from-port="0" to-layer="4653" to-port="1" />
		<edge from-layer="4650" from-port="0" to-layer="4653" to-port="2" />
		<edge from-layer="4651" from-port="0" to-layer="4653" to-port="3" />
		<edge from-layer="4652" from-port="0" to-layer="4653" to-port="4" />
		<edge from-layer="4653" from-port="5" to-layer="4655" to-port="0" />
		<edge from-layer="4654" from-port="0" to-layer="4655" to-port="1" />
		<edge from-layer="4655" from-port="2" to-layer="4657" to-port="0" />
		<edge from-layer="4656" from-port="0" to-layer="4657" to-port="1" />
		<edge from-layer="4657" from-port="2" to-layer="4661" to-port="0" />
		<edge from-layer="4658" from-port="0" to-layer="4661" to-port="1" />
		<edge from-layer="4659" from-port="0" to-layer="4661" to-port="3" />
		<edge from-layer="4660" from-port="0" to-layer="4661" to-port="4" />
		<edge from-layer="4661" from-port="5" to-layer="4666" to-port="0" />
		<edge from-layer="4661" from-port="5" to-layer="4662" to-port="0" />
		<edge from-layer="4661" from-port="5" to-layer="4673" to-port="0" />
		<edge from-layer="4662" from-port="2" to-layer="4676" to-port="0" />
		<edge from-layer="4663" from-port="0" to-layer="4666" to-port="2" />
		<edge from-layer="4664" from-port="0" to-layer="4666" to-port="3" />
		<edge from-layer="4665" from-port="0" to-layer="4666" to-port="4" />
		<edge from-layer="4666" from-port="5" to-layer="4669" to-port="0" />
		<edge from-layer="4667" from-port="0" to-layer="4668" to-port="0" />
		<edge from-layer="4668" from-port="1" to-layer="4669" to-port="1" />
		<edge from-layer="4669" from-port="2" to-layer="4674" to-port="0" />
		<edge from-layer="4670" from-port="0" to-layer="4673" to-port="1" />
		<edge from-layer="4671" from-port="0" to-layer="4673" to-port="3" />
		<edge from-layer="4672" from-port="0" to-layer="4673" to-port="4" />
		<edge from-layer="4673" from-port="5" to-layer="4674" to-port="1" />
		<edge from-layer="4674" from-port="2" to-layer="4675" to-port="0" />
		<edge from-layer="4675" from-port="2" to-layer="4676" to-port="1" />
		<edge from-layer="4676" from-port="2" to-layer="4677" to-port="1" />
		<edge from-layer="4677" from-port="2" to-layer="4678" to-port="0" />
		<edge from-layer="4677" from-port="2" to-layer="4758" to-port="1" />
		<edge from-layer="4729" from-port="0" to-layer="4808" to-port="0" />
		<edge from-layer="4730" from-port="0" to-layer="4734" to-port="1" />
		<edge from-layer="4731" from-port="0" to-layer="4734" to-port="2" />
		<edge from-layer="4732" from-port="0" to-layer="4734" to-port="3" />
		<edge from-layer="4733" from-port="0" to-layer="4734" to-port="4" />
		<edge from-layer="4734" from-port="5" to-layer="4736" to-port="0" />
		<edge from-layer="4735" from-port="0" to-layer="4736" to-port="1" />
		<edge from-layer="4736" from-port="2" to-layer="4738" to-port="0" />
		<edge from-layer="4737" from-port="0" to-layer="4738" to-port="1" />
		<edge from-layer="4738" from-port="2" to-layer="4742" to-port="0" />
		<edge from-layer="4739" from-port="0" to-layer="4742" to-port="1" />
		<edge from-layer="4740" from-port="0" to-layer="4742" to-port="3" />
		<edge from-layer="4741" from-port="0" to-layer="4742" to-port="4" />
		<edge from-layer="4742" from-port="5" to-layer="4743" to-port="0" />
		<edge from-layer="4742" from-port="5" to-layer="4747" to-port="0" />
		<edge from-layer="4742" from-port="5" to-layer="4754" to-port="0" />
		<edge from-layer="4743" from-port="2" to-layer="4757" to-port="0" />
		<edge from-layer="4744" from-port="0" to-layer="4747" to-port="2" />
		<edge from-layer="4745" from-port="0" to-layer="4747" to-port="3" />
		<edge from-layer="4746" from-port="0" to-layer="4747" to-port="4" />
		<edge from-layer="4747" from-port="5" to-layer="4750" to-port="0" />
		<edge from-layer="4748" from-port="0" to-layer="4749" to-port="0" />
		<edge from-layer="4749" from-port="1" to-layer="4750" to-port="1" />
		<edge from-layer="4750" from-port="2" to-layer="4755" to-port="0" />
		<edge from-layer="4751" from-port="0" to-layer="4754" to-port="1" />
		<edge from-layer="4752" from-port="0" to-layer="4754" to-port="3" />
		<edge from-layer="4753" from-port="0" to-layer="4754" to-port="4" />
		<edge from-layer="4754" from-port="5" to-layer="4755" to-port="1" />
		<edge from-layer="4755" from-port="2" to-layer="4756" to-port="0" />
		<edge from-layer="4756" from-port="2" to-layer="4757" to-port="1" />
		<edge from-layer="4757" from-port="2" to-layer="4758" to-port="0" />
		<edge from-layer="4758" from-port="4" to-layer="4760" to-port="0" />
		<edge from-layer="4759" from-port="0" to-layer="4760" to-port="1" />
		<edge from-layer="4760" from-port="2" to-layer="4762" to-port="0" />
		<edge from-layer="4761" from-port="0" to-layer="4762" to-port="1" />
		<edge from-layer="4762" from-port="2" to-layer="4768" to-port="0" />
		<edge from-layer="4763" from-port="0" to-layer="4764" to-port="0" />
		<edge from-layer="4764" from-port="1" to-layer="4766" to-port="0" />
		<edge from-layer="4765" from-port="0" to-layer="4766" to-port="1" />
		<edge from-layer="4766" from-port="2" to-layer="4767" to-port="0" />
		<edge from-layer="4767" from-port="1" to-layer="4768" to-port="1" />
		<edge from-layer="4768" from-port="2" to-layer="4769" to-port="1" />
		<edge from-layer="4769" from-port="2" to-layer="4773" to-port="0" />
		<edge from-layer="4769" from-port="2" to-layer="4780" to-port="0" />
		<edge from-layer="4769" from-port="2" to-layer="4797" to-port="0" />
		<edge from-layer="4770" from-port="0" to-layer="4781" to-port="0" />
		<edge from-layer="4771" from-port="0" to-layer="4779" to-port="0" />
		<edge from-layer="4772" from-port="0" to-layer="4773" to-port="1" />
		<edge from-layer="4773" from-port="2" to-layer="4775" to-port="0" />
		<edge from-layer="4774" from-port="0" to-layer="4775" to-port="1" />
		<edge from-layer="4775" from-port="2" to-layer="4777" to-port="0" />
		<edge from-layer="4776" from-port="0" to-layer="4777" to-port="1" />
		<edge from-layer="4777" from-port="2" to-layer="4778" to-port="0" />
		<edge from-layer="4778" from-port="1" to-layer="4779" to-port="1" />
		<edge from-layer="4779" from-port="2" to-layer="4780" to-port="1" />
		<edge from-layer="4780" from-port="2" to-layer="4781" to-port="1" />
		<edge from-layer="4781" from-port="2" to-layer="4787" to-port="0" />
		<edge from-layer="4782" from-port="0" to-layer="4783" to-port="0" />
		<edge from-layer="4783" from-port="1" to-layer="4785" to-port="0" />
		<edge from-layer="4784" from-port="0" to-layer="4785" to-port="1" />
		<edge from-layer="4785" from-port="2" to-layer="4786" to-port="0" />
		<edge from-layer="4786" from-port="1" to-layer="4787" to-port="1" />
		<edge from-layer="4787" from-port="2" to-layer="4788" to-port="0" />
		<edge from-layer="4788" from-port="3" to-layer="4789" to-port="0" />
		<edge from-layer="4788" from-port="4" to-layer="4790" to-port="0" />
		<edge from-layer="4789" from-port="1" to-layer="4790" to-port="1" />
		<edge from-layer="4790" from-port="2" to-layer="4796" to-port="0" />
		<edge from-layer="4791" from-port="0" to-layer="4792" to-port="0" />
		<edge from-layer="4792" from-port="1" to-layer="4794" to-port="0" />
		<edge from-layer="4793" from-port="0" to-layer="4794" to-port="1" />
		<edge from-layer="4794" from-port="2" to-layer="4795" to-port="0" />
		<edge from-layer="4795" from-port="1" to-layer="4796" to-port="1" />
		<edge from-layer="4796" from-port="2" to-layer="4797" to-port="1" />
		<edge from-layer="4797" from-port="2" to-layer="4807" to-port="0" />
		<edge from-layer="4797" from-port="2" to-layer="4800" to-port="0" />
		<edge from-layer="4798" from-port="0" to-layer="4806" to-port="0" />
		<edge from-layer="4799" from-port="0" to-layer="4800" to-port="1" />
		<edge from-layer="4800" from-port="2" to-layer="4802" to-port="0" />
		<edge from-layer="4801" from-port="0" to-layer="4802" to-port="1" />
		<edge from-layer="4802" from-port="2" to-layer="4804" to-port="0" />
		<edge from-layer="4803" from-port="0" to-layer="4804" to-port="1" />
		<edge from-layer="4804" from-port="2" to-layer="4805" to-port="0" />
		<edge from-layer="4805" from-port="1" to-layer="4806" to-port="1" />
		<edge from-layer="4806" from-port="2" to-layer="4807" to-port="1" />
		<edge from-layer="4807" from-port="2" to-layer="4808" to-port="1" />
		<edge from-layer="4808" from-port="2" to-layer="4817" to-port="0" />
		<edge from-layer="4809" from-port="0" to-layer="4810" to-port="0" />
		<edge from-layer="4810" from-port="1" to-layer="4813" to-port="0" />
		<edge from-layer="4811" from-port="0" to-layer="4812" to-port="0" />
		<edge from-layer="4812" from-port="1" to-layer="4813" to-port="1" />
		<edge from-layer="4813" from-port="2" to-layer="4815" to-port="0" />
		<edge from-layer="4814" from-port="0" to-layer="4815" to-port="1" />
		<edge from-layer="4815" from-port="2" to-layer="4816" to-port="0" />
		<edge from-layer="4816" from-port="1" to-layer="4817" to-port="1" />
		<edge from-layer="4817" from-port="2" to-layer="4818" to-port="0" />
	</edges>
	<rt_info>
		<Runtime_version value="2025.2.0-19140-c01cd93e24d-releases/2025/2" />
		<conversion_parameters>
			<framework value="pytorch" />
			<is_python_object value="True" />
		</conversion_parameters>
		<nncf>
			<friendly_names_were_updated value="True" />
			<version value="2.17.0" />
			<weight_compression>
				<advanced_parameters value="{'statistics_path': None, 'awq_params': {'subset_size': 32, 'percent_to_apply': 0.002, 'alpha_min': 0.0, 'alpha_max': 1.0, 'steps': 100, 'prefer_data_aware_scaling': True}, 'scale_estimation_params': {'subset_size': 64, 'initial_steps': 5, 'scale_steps': 5, 'weight_penalty': -1.0}, 'gptq_params': {'damp_percent': 0.1, 'block_size': 128, 'subset_size': 128}, 'lora_correction_params': {'adapter_rank': 8, 'num_iterations': 3, 'apply_regularization': True, 'subset_size': 128, 'use_int8_adapters': True}, 'lora_adapter_rank': 256, 'backend_params': {}}" />
				<all_layers value="False" />
				<awq value="False" />
				<backup_mode value="int8_asym" />
				<compression_format value="dequantize" />
				<gptq value="False" />
				<group_size value="-1" />
				<ignored_scope value="[]" />
				<lora_correction value="False" />
				<mode value="int4_sym" />
				<ratio value="1.0" />
				<scale_estimation value="False" />
				<sensitivity_metric value="weight_quantization_error" />
			</weight_compression>
		</nncf>
		<optimum>
			<nncf_version value="2.17.0" />
			<optimum_intel_version value="1.25.2" />
			<optimum_version value="1.27.0" />
			<pytorch_version value="2.8.0" />
			<transformers_version value="4.53.3" />
		</optimum>
		<runtime_options>
			<ACTIVATIONS_SCALE_FACTOR value="8.0" />
		</runtime_options>
	</rt_info>
</net>
